Raspberry files/model.tflite (tflite, 495984 bytes, 28 tensors)

fire5/squeeze1x1/bias f4 [32]
0.042470746 0.014013386 0.016468247 0.04207318 0.019098697 0.050862994 0.02247783 0.035448726
0.039928444 0.05118615 -0.016363895 -0.0066386987 0.026528848 -0.015524812 0.0061760927 0.008556889
0.0070648836 0.029305961 0.013175845 0.021700708 0.012939876 -0.02527807 0.04973962 0.04002745
0.011856562 0.0 0.0444554 0.0117167 0.07870579 0.0021129923 0.050153118 -0.012622593
00000000: cef5 2d3d 6798 653c 6be8 863c ed54 2c3d
00000010: df74 9c3c b755 503d 6d23 b83c af32 113d
00000020: 028c 233d 92a8 513d 930d 86bc 7189 d9bb
00000030: 0753 d93c c85b 7ebc d260 ca3b 3232 0c3c
00000040: 8a80 e73b 0e13 f03c 80df 573c afc5 b13c
00000050: c601 543c f413 cfbc c6bb 4b3d d3f3 233d
00000060: 0742 423c 0000 0000 de16 363d 67f7 3f3c
00000070: 8030 a13d 217a 0a3b 5b6d 4d3d fece 4ebc

fire5/expand3x3/bias f4 [128]
-0.006875543 -0.0060262987 0.024998765 0.029795878 0.0029063385 -0.00415201 -0.033520404 0.0021059462
0.0074341022 -0.022699565 -0.025207253 -0.05313614 0.042602394 -0.0028710165 -0.04957973 -0.0088164685
0.054757506 -0.042254686 -0.014016626 -0.046586893 0.04836584 0.027884997 -0.046224453 -0.023972718
-0.011751111 0.022054628 0.011555752 0.067620344 -0.030067988 0.023782684 0.0150541905 -0.0022262665
-0.005284443 0.052998215 0.012231847 -0.018575085 0.04408804 0.0494617 -0.009967409 -0.0062802387
0.04288535 0.040671665 0.02092394 0.0130481785 0.06579614 -0.0023092069 -0.029309906 -0.0048010256
0.0020826324 0.021281157 0.038904753 0.041514628 -0.005539036 0.020867772 0.0037651001 0.0059376545
0.0031512792 0.03245104 0.031871576 -0.024769008 0.074779935 -0.067552045 -0.02032735 -0.017356599
-0.03176255 -0.010974131 0.008128267 0.018204438 0.051579427 0.0407397 0.048151545 -0.004597533
0.04259648 0.045555416 -0.032645088 -0.02769876 0.009686695 -0.004945788 0.012373782 0.0433796
0.013905309 -0.020279888 -0.035271645 -0.013767843 -0.010481277 0.029686349 0.03372615 0.03744989
0.0012726686 -0.04656957 0.04122441 -0.008744893 -0.001067756 -0.026314385 0.021954449 0.004121493
0.070296966 0.0047078286 -0.03318749 -0.024788704 0.022971354 0.005241768 -0.028619777 -0.0029247408
0.020575766 -0.008021975 0.012165288 0.03584604 -0.0060304482 -0.020998174 0.035174906 0.047213
-0.039071888 0.017631147 0.025941048 2.0583086e-05 -0.016937379 0.0015622027 0.018041797 -0.020036887
0.024427615 0.0011029316 -0.0034496773 -0.03023915 -0.00540998 0.065568715 0.016191898 -0.0146784615
00000000: 3c4c e1bb 4278 c5bb 36ca cc3c 7c16 f43c
00000010: 4578 3e3b 960d 88bb b14c 09bd ea03 0a3b
00000020: c599 f33b 70f4 b9bc 717f cebc 48a5 59bd
00000030: d97f 2e3d aa27 3cbb 1d14 4bbd f372 10bc
00000040: 6849 603d 4013 2dbd fea5 65bc e6d1 3ebd
00000050: 421b 463d 146f e43c da55 3dbd 6f62 c4bc
00000060: bb87 40bc e8ab b43c 5654 3d3c 897c 8a3d
00000070: 2451 f6bc e7d3 c23c daa5 763c 8ee6 11bb
00000080: 1f29 adbb a814 593d 1668 483c c72a 98bc
00000090: a995 343d 5a98 4a3d 584e 23bc 76ca cdbb
000000a0: 8ca8 2f3d 5597 263d af68 ab3c 07c8 553c
000000b0: 20c0 863d 1056 17bb 541b f0bc ec51 9dbb
000000c0: c67c 083b d255 ae3c 975a 1f3d 3e0b 2a3d
000000d0: cd80 b5bb e4f2 aa3c e6bf 763b a890 c23b
000000e0: b185 4e3b 62eb 043d c58b 023d 60e8 cabc
000000f0: 3926 993d ba58 8abd 8b85 a6bc 6d2f 8ebc
00000100: 7319 02bd d7cc 33bc 6c2c 053c 7921 953c
00000110: f344 533d acde 263d 8e3a 453d e7a6 96bb
00000120: a679 2e3d 5198 3a3d dbb6 05bd 83e8 e2bc
00000130: f2b4 1e3c 4710 a2bb 67bb 4a3c cfae 313d
00000140: 18d3 633c 0222 a6bc 0079 10bd 8592 61bc
00000150: a9b9 2bbc c930 f33c 6e24 0a3d 0e65 193d
00000160: accf a63a bcbf 3ebd edda 283d bd46 0fbc
00000170: f2f3 8bba 4491 d7bc d1d9 b33c 970d 873b
00000180: dbf7 8f3d 2144 9a3b 9bef 07bd ae11 cbbc
00000190: 6c2e bc3c 23c3 ab3b 0674 eabc 02ad 3fbb
000001a0: 828e a83c 9a6e 03bc eb50 473c 4cd3 123d
000001b0: 119b c5bb 5d04 acbc 9013 103d 6b62 413d
000001c0: d809 20bd 326f 903c 5282 d43c d7a9 ac37
000001d0: 42c0 8abc d3c2 cc3a 64cc 933c 6624 a4bc
000001e0: 6c1c c83c 3e90 903a fb13 62bb 18b8 f7bc
000001f0: 3446 b1bb e448 863d dfa4 843c ee7d 70bc

fire5/expand1x1/bias f4 [128]
0.0028925636 0.040872324 0.023187175 0.013128384 0.046002124 -0.043100536 -0.022703296 0.052784488
0.035659514 0.042741556 -0.030169569 -0.0011285905 -0.048783544 0.006224734 -0.024932286 0.101431966
-0.033126634 -0.07926391 0.04625853 -0.0020014076 0.035258465 -0.07228569 -0.03847349 0.0028028134
0.048106506 0.04990765 0.03696618 0.02642616 -0.017801099 -0.03802317 0.018389214 0.047782686
-0.004421046 0.03468447 -0.007413978 -0.037323944 -0.023282798 -0.05866637 0.06900046 -0.00028758278
0.0011426306 0.010758681 0.008512362 -0.036136415 -0.032697342 0.056484178 -0.04819723 0.002103722
-0.008007134 0.0156214805 0.007016948 0.017159713 -0.02776582 0.09448516 0.025733782 0.022341464
0.007996807 0.051442176 0.054319195 0.08552065 0.0094477 -0.003307016 0.013862692 -0.03586655
-0.0070543946 0.06270445 -0.0026256696 -0.02272639 0.075153954 0.015064543 0.032933433 -0.020427512
0.032973517 -0.05430392 -0.023974048 -0.032737657 -0.004449744 0.007826624 0.012290023 0.024535391
-0.06556376 -0.0030731508 0.053878594 -0.037777137 0.08089179 -0.00945914 -0.010623827 0.020827195
-0.031216107 -0.0060602063 0.0067293528 0.017459169 -0.030948361 0.018243711 0.022271773 -0.026302055
-0.022311118 -0.030744372 0.009196527 -0.037092086 -0.01916575 -0.038196113 0.0871849 -0.055160187
-0.051264953 -0.04068664 -0.0070612533 0.0051214397 -0.07959321 -0.021168351 0.028160509 -0.015544975
-0.0057155406 -0.04398385 -0.016092626 -0.09382196 -0.00057293405 -0.0071307695 0.018364226 0.06778448
0.032940287 -0.04797722 0.055269733 -0.0014817632 0.040740244 -0.06687954 -0.014534885 -0.014978953
00000000: 2a91 3d3b bd69 273d 08f3 bd3c 6f18 573c
00000010: b96c 3c3d 308a 30bd 43fc b9bc 8c34 583d
00000020: b60f 123d c511 2f3d 2c26 f7bc 37ed 93ba
00000030: 41d1 47bd daf8 cb3b cb3e ccbc 90bb cf3d
00000040: cbaf 07bd 1e55 a2bd 9679 3d3d 0c2a 03bb
00000050: 2e6b 103d 850a 94bd 6196 1dbd 68af 373b
00000060: 540b 453d f76b 4c3d d969 173d ad7b d83c
00000070: 9cd3 91bc 2fbe 1bbd faa4 963c c7b7 433d
00000080: 6cde 90bb 4e11 0e3d f5f0 f2bb fee0 18bd
00000090: 91bb bebc 264c 70bd 1d50 8d3d b5c6 96b9
000000a0: 52c4 953a 2e45 303c 6f77 0b3c c703 14bd
000000b0: a6ed 05bd f45b 673d 756a 45bd 99de 093b
000000c0: 5b30 03bc 3df1 7f3c 6dee e53b 8792 8c3c
000000d0: 2575 e3bc 7081 c13d a7cf d23c 7205 b73c
000000e0: 0a05 033c 08b5 523d ce7d 5e3d 7325 af3d
000000f0: 87ca 1a3c 86ba 58bb 5820 633c cee8 12bd
00000100: 8d28 e7bb 316b 803d 6d13 2cbb b22c babc
00000110: 51ea 993d 46d1 763c 35e5 063d 9957 a7bc
00000120: 3d0f 073d ca6d 5ebd 3965 c4bc ec17 06bd
00000130: 28cf 91bb 3e3b 003c 185c 493c 72fe c83c
00000140: 4b46 86bd ea66 49bb cdaf 5c3d 33bc 1abd
00000150: 98aa a53d 82fa 1abc 8f0f 2ebc cb9d aa3c
00000160: ecb8 ffbc b294 c6bb e781 dc3b 8806 8f3c
00000170: 6b87 fdbc d673 953c 4b73 b63c 6877 d7bc
00000180: cec5 b6bc 9fdb fbbc 08ad 163c dfed 17bd
00000190: 7e01 9dbc 8773 1cbd ff8d b23d a6ef 61bd
000001a0: 33fb 51bd 09a7 26bd 1662 e7bb c0d1 a73b
000001b0: c401 a3bd 4069 adbc deb0 e63c 5ab0 7ebc
000001c0: 6e49 bbbb 6928 34bd afd4 83bc ba25 c0bd
000001d0: f430 16ba 3ba9 e9bb 9370 963c 97d2 8a3d
000001e0: 65ec 063d c383 44bd 8462 623d b937 c2ba
000001f0: 3edf 263d 24f8 88bd ba23 6ebc 486a 75bc

fire4/squeeze1x1/bias f4 [32]
0.007999936 -0.004850926 0.0018490955 -7.109289e-05 -0.0077324254 0.010489557 0.0069111236 -0.0036197964
0.014910606 0.008090476 0.0129037965 0.016685467 0.013634086 0.0005720627 0.016638141 0.0049836566
0.03727306 0.07005683 -0.02855085 0.016699037 -0.0004394541 0.029694913 -0.008886527 0.028677447
0.0149864135 0.02149717 0.016312534 0.02199555 -0.008387634 -0.00053949194 0.01694931 -0.016546313
00000000: 2a12 033c 84f4 9ebb 595d f23a b417 95b8
00000010: 4960 fdbb 64dc 2b3c b576 e23b 1b3a 6dbb
00000020: 9d4b 743c ea8d 043c 726a 533c f6af 883c
00000030: 8061 5f3c 7af6 153a b64c 883c f14d a33b
00000040: a3ab 183d f579 8f3d 79e3 e9bc 6bcc 883c
00000050: 8866 e6b9 bf42 f33c cc98 11bc f7ec ea3c
00000060: 9389 753c d51a b03c dda1 853c 0330 b43c
00000070: 496c 09bc b16c 0dba 48d9 8a3c 228c 87bc

fire4/expand3x3/bias f4 [128]
-0.007557209 -0.040266536 0.0421322 -0.017841164 0.016119506 0.0298391 0.007156995 -0.0040732464
0.026391646 0.019566052 0.03427884 0.022009427 -0.024141872 0.037086863 0.02911668 0.05273116
0.019937636 0.019738128 0.017037328 -0.011714874 -0.0053093485 0.016288945 0.00672987 -0.016441388
0.026087191 0.018402293 0.05771247 0.0068102526 0.03430816 0.037091456 0.007662343 -0.0032593822
-0.0063349856 0.011445068 -0.007812215 0.027387194 0.020022957 0.0047220597 0.013791859 -0.02105086
0.02677767 -0.0006036943 0.019036785 0.0015199534 0.024105972 0.007714398 -0.0028363455 0.02513041
0.010519314 -0.0020281903 0.020213116 0.025015904 -0.00016293021 0.0240826 -0.018837852 0.018777542
0.08676475 0.034952935 0.0510563 0.02788143 0.017856738 0.025886128 -0.012751189 0.013149377
0.01614732 0.01763489 0.011490207 0.02270468 0.025621286 -0.011349077 -0.00437432 -0.019534534
0.06556678 0.0061401688 -0.052580163 0.009832941 0.0074560195 0.04877831 -0.02521037 -0.016540103
0.05801849 0.011746808 0.012955658 0.0073096673 0.0021547547 0.02727572 0.03182943 -0.014334383
0.020136321 0.016287467 0.022542477 0.012241704 0.0027794277 0.011911008 -0.012047191 0.035535473
0.0088315625 0.009377965 0.01706426 0.0035559705 0.032738425 -0.0065133506 0.030031439 0.017834278
0.015913269 0.008108874 -0.0019844093 0.0023578333 0.045645304 0.008787388 -0.007347901 0.017289072
0.052306306 0.033404812 0.03614555 -0.0058555147 0.00999263 0.016817227 0.006376746 0.056275547
0.027515944 0.024794448 -0.019355692 0.0093398215 0.0016046779 0.05064768 0.021932686 0.014817983
00000000: 77a2 f7bb 86ee 24bd d092 2c3d a227 92bc
00000010: 0e0d 843c 2171 f43c 3a85 ea3b de78 85bb
00000020: 4b33 d83c fc48 a03c f867 0c3d 1d4d b43c
00000030: 2dc5 c5bc 65e8 173d 1b86 ee3c a1fc 573d
00000040: 4154 a33c dbb1 a13c de91 8b3c beef 3fbc
00000050: 0bfa adbb 6570 853c 3e86 dc3b 17b0 86bc
00000060: ceb4 d53c 68c0 963c e963 6c3d 8a28 df3b
00000070: b786 0c3d 36ed 173d 6414 fb3b 5c9b 55bb
00000080: b695 cfbb 1884 3b3c 9cfd ffbb 1c5b e03c
00000090: 2f07 a43c 82bb 9a3b 40f7 613c da72 acbc
000000a0: d85c db3c 3d41 1eba 08f3 9b3c 2c39 c73a
000000b0: e379 c53c 10c9 fc3b fbe1 39bb 4ade cd3c
000000c0: 3359 2c3c 63eb 04bb fa95 a53c 27ee cc3c
000000d0: 3fd8 2ab9 df48 c53c d751 9abc 5cd3 993c
000000e0: b8b1 b13d cf2a 0f3d 6920 513d 9967 e43c
000000f0: 4b48 923c 250f d43c 5dea 50bc 7c70 573c
00000100: 6247 843c 0b77 903c 6c41 3c3c 2aff b93c
00000110: bbe3 d13c 7bf1 39bc 7556 8fbb e306 a0bc
00000120: e047 863d 7833 c93b 4c5e 57bd 581a 213c
00000130: a051 f43b c4cb 473d fa85 cebc 1c7f 87bc
00000140: cca4 6d3d af75 403c f843 543c ef85 ef3b
00000150: c936 0d3b 5571 df3c 945f 023d c3da 6abc
00000160: edf4 a43c 4b6d 853c 00ab b83c 6e91 483c
00000170: 0f27 363b 6326 433c 9561 45bc a58d 113d
00000180: 42b2 103c 09a6 193c 59ca 8b3c 490b 693b
00000190: ba18 063d f26d d5bb 7e04 f63c 3119 923c
000001a0: 8b5c 823c 15db 043c dd0c 02bb e185 1a3b
000001b0: 92f6 3a3d faf8 0f3c a9c6 f0bb d0a1 8d3c
000001c0: 233f 563d 7cd3 083d 5b0d 143d 9edf bfbb
000001d0: 21b8 233c 48c4 893c 06f4 d03b 3081 663d
000001e0: 1e69 e13c ba1d cb3c d48f 9ebc 0d06 193c
000001f0: 0e54 d23a f173 4f3d 2dac b33c 20c7 723c

fire4/expand1x1/bias f4 [128]
0.029338809 0.0066475794 0.007942466 0.0015167883 -0.01458689 0.07517107 0.0040124333 0.066013806
0.026375415 -0.013980812 0.0031436938 0.00049942883 0.00855133 0.033154797 -0.012845424 0.00085573376
-0.006488975 0.010691971 -0.026200334 0.005839172 0.08366019 -0.0037853923 0.010785162 -0.00027475433
-0.003265072 0.0113606285 0.022937512 0.06804316 0.03899506 0.025538234 -0.011856516 0.09947253
0.085368775 0.013980613 -0.022363082 0.010456133 -0.04482705 0.007634597 0.020450963 0.008313784
0.0014946355 0.028084977 0.007423109 0.030931538 0.08919443 0.00015206139 1.6739668e-05 -0.0064485674
0.038932513 0.08817371 -0.034438107 0.030003142 0.01846034 -0.0043585016 -0.004233094 -0.021232514
0.050102204 -0.022304436 -0.0039599 0.004146966 -0.025244756 0.014744164 0.08558265 0.113371566
0.011652383 -0.008832281 0.028539414 0.013487522 -0.0030447482 -0.0071896487 0.046000488 -0.006252105
0.013282883 0.0056269225 -0.03741306 0.09094541 0.046122484 0.019062635 -0.009783584 0.013930485
-0.027687144 0.0602016 0.010247412 -0.021825138 0.0 0.00577696 0.005566109 0.057840437
0.03839925 0.036475398 -0.011659514 0.023604326 0.0020109254 0.05806226 -0.009252215 0.022489196
0.012705779 0.009641801 0.0049674693 0.019565642 0.016286807 0.03110009 0.038821664 0.001238139
0.017738452 0.00025777565 0.033735186 0.0065038432 -0.013782082 -0.024799215 -0.0073396084 0.014888258
-0.0003974612 -0.0036867503 -0.009759064 -0.035657216 0.01626719 0.012022623 -0.025864799 0.08225808
0.022965282 0.078991085 0.112966575 0.025205856 -0.036055632 0.05500423 -0.009348485 0.015725719
00000000: f157 f03c f0d3 d93b 1e21 023c f8ce c63a
00000010: dafd 6ebc 4af3 993d bb7a 833b 3f32 873d
00000020: 4111 d83c c70f 65bc 6e06 4e3b 1aec 023a
00000030: e11a 0c3c 53cd 073d 9d75 52bc 5253 603a
00000040: 78a1 d4bb 602d 2f3c 15a2 d6bc 8656 bf3b
00000050: 0956 ab3d 5814 78bb 40b4 303c e70c 90b9
00000060: d1fa 55bb ee21 3a3c 73e7 bb3c 365a 8b3d
00000070: 49b9 1f3d 8f35 d13c d541 42bc 41b8 cb3d
00000080: d3d5 ae3d f10e 653c c832 b7bc 3350 2b3c
00000090: 929c 37bd a42b fa3b c788 a73c 8a36 083c
000000a0: a5e7 c33a 7712 e63c 8d3d f33b 2364 fd3c
000000b0: 92ab b63d ab72 1f39 2a6c 8c37 814e d3bb
000000c0: b377 1f3d 6b94 b43d f90e 0dbd 26c9 f53c
000000d0: 243a 973c c3d1 8ebb c4b5 8abb cfef adbc
000000e0: f837 4d3d cbb7 b6bc 0cc2 81bb 46e3 873b
000000f0: 17ce cebc 8291 713c f545 af3d 5a2f e83d
00000100: a3e9 3e3c 46b5 10bc 7dcb e93c c4fa 5c3c
00000110: 668a 47bb 2597 ebbb 026b 3c3d 75de ccbb
00000120: 73a0 593c 0c62 b83b 703e 19bd 9641 ba3d
00000130: eeea 3c3d 3e29 9c3c 534b 20bc b03c 643c
00000140: 26d0 e2bc f495 763d c3e4 273c a2ca b2bc
00000150: 0000 0000 a74c bd3b e863 b63b 18ea 6c3d
00000160: 8848 1d3d 3a67 153d 8c07 3fbc dc5d c13c
00000170: bbc9 033b b1d2 6d3d 9a96 17bc 433b b83c
00000180: e62b 503c a5f8 1d3c 27c6 a23b 2048 a03c
00000190: e96b 853c 9ec5 fe3c 7703 1f3d 0d49 a23a
000001a0: 3b50 913c 1026 8739 e82d 0a3d 311e d53b
000001b0: 3ece 61bc b927 cbbc 1981 f0bb e1ed 733c
000001c0: 5762 d0b9 689d 71bb 7be4 1fbc 4d0d 12bd
000001d0: c542 853c 89fa 443c 6ae2 d3bc ed76 a83d
000001e0: b021 bc3c 14c6 a13d 055b e73d 837c ce3c
000001f0: 12af 13bd 1e4c 613d 632a 19bc 39d3 803c

fire3/squeeze1x1/bias f4 [16]
0.028315239 0.028793031 0.0027554126 0.046425886 0.016696224 0.034375455 -0.01579156 0.019872695
0.0065976973 0.032567464 0.013456272 -0.0033428941 0.016504481 0.007716327 0.023204952 0.0337116
00000000: 5cf5 e73c 5ddf eb3c 2794 343b 1229 3e3d
00000010: 85c6 883c 47cd 0c3d 4d5d 81bc 10cc a23c
00000020: 7f31 d83b 7665 053d b277 5c3c 7514 5bbb
00000030: 6834 873c 3ed9 fc3b 5018 be3c 2d15 0a3d

fire3/expand3x3/bias f4 [64]
0.028237918 0.014218729 -0.017612362 0.009997811 -0.012651271 0.020164479 0.0048936442 0.026651911
0.011317702 -0.0023035773 0.0055845557 0.0071005607 -0.00023831957 0.001085881 0.008717187 0.015371259
0.003999246 0.020945251 0.010155861 0.014786841 0.0069728424 0.0060391566 0.0051799165 0.0020544212
0.0012080796 -0.03236709 0.0028286572 0.0045462768 0.014212729 -0.007212279 0.02092208 0.010834545
0.00534323 0.003682263 0.016441183 0.012329034 0.0020047964 0.0034146667 -0.0004866589 0.040693536
-0.009270169 -0.0020780875 -0.003956381 0.00486942 0.002416736 -0.0005069283 -0.018928338 0.008945335
0.009367501 0.024707485 -0.0060431883 0.0007949417 -0.007517763 0.011474755 -0.008059852 0.0052028554
-0.0035425762 -0.0006260034 -0.0049905945 -0.01992567 -0.005781149 0.013504822 0.017048657 0.028864453
00000000: 3553 e73c acf5 683c cd47 90bc dccd 233c
00000010: 4747 4fbc fa2f a53c dd5a a03b 1c55 da3c
00000020: e26d 393c 9df7 16bb a6fe b63b d2ab e83b
00000030: 6ce5 79b9 1f54 8e3a 88d2 0e3c bcd7 7b3c
00000040: 1b0c 833b 6095 ab3c c564 263c 8244 723c
00000050: 717c e43b 1ee4 c53b 4abc a93b 78a3 063b
00000060: 6d58 9e3a 5b93 04bd fe60 393b eff8 943b
00000070: 82dc 683c fb54 ecbb c864 ab3c 6083 313c
00000080: 4316 af3b 1f52 713b a9af 863c b7ff 493c
00000090: e762 033b 9ac8 5f3b 4026 ffb9 44ae 263d
000000a0: e8e1 17bc 8630 08bb 88a4 81bb a88f 9f3b
000000b0: 1a62 1e3b 62e3 04ba 9a0f 9bbc 748f 123c
000000c0: 267a 193c 5a67 ca3c f005 c6bb a263 503a
000000d0: 9157 f6bb 9c00 3c3c 780d 04bc b77c aa3b
000000e0: 912a 68bb 611a 24ba 2488 a3bb 293b a3bc
000000f0: cb6f bdbb 5443 5d3c a0a9 8b3c 2575 ec3c

fire3/expand1x1/bias f4 [64]
-0.007864379 0.008898103 0.0016938609 0.028397197 0.011654968 -0.003024233 -0.012220022 -0.0045866007
0.009674817 0.024738671 0.011114648 0.042330947 0.008212916 -0.038356435 0.022432536 -0.001239399
0.0123377545 0.01075113 0.048137512 0.03006601 0.018626539 -0.029179104 0.030566772 0.0058809957
-0.02141129 0.0126535185 0.002217449 0.03398027 -0.020405363 -0.016844427 -0.025390372 -0.007960752
-0.033238467 0.014135459 0.0027990825 -0.008279549 -0.032137822 0.0056927614 -0.04097516 -0.007691176
-0.013824318 -0.0014550292 0.008093979 -0.03345031 0.026552554 0.010559284 0.0009982869 0.009546368
0.0097668655 -0.002436096 0.0010665328 0.012576263 0.0062720967 -0.0060071866 0.0006320512 0.056852043
0.0038731152 -0.015157559 -0.003175361 0.04642705 -0.0014815631 -0.026780268 -0.0446098 -0.028059948
00000000: 99d9 00bc 59c9 113c 8a04 de3a 3da1 e83c
00000010: 7bf4 3e3c 3632 46bb 7d36 48bc 324b 96bb
00000020: 2083 1e3c c1a8 ca3c 361a 363c 3763 2d3d
00000030: 778f 063c a31b 1dbd 70c4 b73c 5473 a2ba
00000040: 4b24 4a3c 8225 303c d72b 453d fe4c f63c
00000050: af96 983c 0409 efbc 2b67 fa3c 5eb5 c03b
00000060: bb66 afbc b450 4f3c 9f52 113b e52e 0b3d
00000070: 2629 a7bc 53fd 89bc 78ff cfbc d06d 02bc
00000080: 0f25 08bd 6a98 673c d070 373b f2a6 07bc
00000090: f3a2 03bd 588a ba3b 92d5 27bd 4306 fcbb
000000a0: 647f 62bc aeb6 beba 9c9c 043c 3103 09bd
000000b0: be84 d93c d900 2d3c f3d8 823a 5f68 1c3c
000000c0: 3405 203c e9a6 1fbb e7ca 8b3a ac0c 4e3c
000000d0: 2986 cd3b efd7 c4bb 3db0 253a b0dd 683d
000000e0: 17d4 7d3b 6957 78bc b819 50bb 4a2a 3e3d
000000f0: 0231 c2ba 4b62 dbbc c4b8 36bd fadd e5bc

fire2/squeeze1x1/bias f4 [16]
0.04614514 0.01721353 0.033982772 0.01891235 0.043561887 0.030582808 0.03947366 0.042080447
-0.002823718 -0.0028780801 -0.0070024235 0.023180481 0.0076357927 0.016477404 0.024326485 0.030808019
00000000: b002 3d3d 6403 8d3c 8531 0b3d 13ee 9a3c
00000010: f36d 323d cc88 fa3c 22af 213d 8c5c 2c3d
00000020: 200e 39bb 2c9e 3cbb 9674 e5bb fee4 bd3c
00000030: ac35 fa3b 9ffb 863c 5648 c73c 1961 fc3c

fire2/expand3x3/bias f4 [64]
0.0113320835 0.014576757 0.018659703 0.01785329 -0.010223381 0.022681022 0.0043603294 -0.0001511331
0.04327758 -0.00484773 0.021607209 0.0016130196 0.012668192 0.015592263 0.039372712 -0.008607697
0.006444476 0.02861742 0.03388875 0.015921857 0.011207981 0.015873073 0.018257542 0.006957056
0.018849334 0.004714408 0.03544895 -0.03720689 0.028603131 0.0073567512 0.031071119 0.002166985
0.014862355 0.035919394 0.02651037 0.00892018 -0.0017781297 0.011520249 0.010246795 0.002769711
0.016561836 0.036072776 -0.021304855 0.010549203 0.023713093 0.0024504117 0.012957611 0.062552996
0.06167387 0.042175286 0.013945116 -0.0057194503 0.014992597 0.004035731 -0.0026383013 0.025098803
0.024766158 0.009915903 0.014123607 0.009645316 0.025363922 0.0018617511 0.0023720218 -0.004365889
00000000: 34aa 393c 5ad3 6e3c 3cdc 983c 1041 923c
00000010: f87f 27bc 8dcd b93c 18e1 8e3b 7c79 1eb9
00000020: d543 313d b5d9 9ebb 9a01 b13c f56b d33a
00000030: 408e 4f3c b176 7f3c 4845 213d 4c07 0dbc
00000040: 2f2c d33b 146f ea3c eece 0a3d 8e6e 823c
00000050: aea1 373c 3f08 823c d790 953c 04f8 e33b
00000060: eb69 9a3c 527b 9a3b eb32 113d 4066 18bd
00000070: 1d51 ea3c e710 f13b dc88 fe3c fa03 0e3b
00000080: 3c81 733c 3720 133d 472c d93c f225 123c
00000090: 2210 e9ba 6dbf 3c3c 2ce2 273c 0a84 353b
000000a0: b0ac 873c 0cc1 133d 8587 aebc 90d6 2c3c
000000b0: f641 c23c 1697 203b 294c 543c c91b 803d
000000c0: bd9d 7c3d febf 2c3d 0e7a 643c 3a6a bbbb
000000d0: 82a3 753c 2a3e 843b 5ae7 2cbb 019c cd3c
000000e0: 66e2 ca3c 5076 223c b466 673c 6307 1e3c
000000f0: 00c8 cf3c 0006 f43a ec73 1b3b bb0f 8fbb

fire2/expand1x1/bias f4 [64]
0.05284362 -0.03754687 -0.004551781 0.08384884 -0.014641683 -0.009105441 0.014591949 0.0013345667
0.108523525 0.013433902 0.03895028 -0.020250976 -0.003091613 0.0023204053 -0.015514088 -0.002696264
0.019234583 0.03754896 0.018677082 -0.00798667 -0.00086669467 -0.0066018347 -0.0033640398 -0.030490616
-0.0015175899 0.005180263 0.053353086 0.0053951046 -0.08937154 -0.0077389465 0.0013693004 0.008897928
-0.015702672 -0.016502773 0.019320983 0.006880453 0.016663933 -0.015237333 0.030917116 -0.0030723363
0.06437917 -0.00021549423 0.053669173 0.00875706 -0.010155118 0.03482782 0.017684773 -0.045851063
0.011835557 0.0042945007 0.0 0.007244197 -0.015580991 0.014026739 -0.041029036 -0.029852357
0.03466952 -0.015175792 0.00056607806 0.030397682 0.006980802 0.024558725 0.003688076 0.03174276
00000000: 8d72 583d bfca 19bd 1b27 95bb f1b8 ab3d
00000010: abe3 6fbc fd2e 15bc 1213 6f3c a1ec ae3a
00000020: 9541 de3d de19 5c3c 548a 1f3d 60e5 a5bc
00000030: a99c 4abb f111 183b cd2e 7ebc ceb3 30bb
00000040: d891 9d3c f0cc 193d ae00 993c 86da 02bc
00000050: e532 63ba 3454 d8bb 3977 5cbb 75c7 f9bc
00000060: dee9 c6ba 32bf a93b c488 5a3d 6bc9 b03b
00000070: 6d08 b7bd fd96 fdbb 197a b33a 9dc8 113c
00000080: e4a2 80bc d330 87bc 0a47 9e3c 6c75 e13b
00000090: cd82 883c 02a6 79bc e445 fd3c 4059 49bb
000000a0: 3ad9 833d 4bf6 61b9 35d4 5b3d c679 0f3c
000000b0: a761 26bc 9ea7 0e3d a8df 903c 53ce 3bbd
000000c0: ede9 413c e2b8 8c3b 0000 0000 bb60 ed3b
000000d0: 6a47 7fbc 68d0 653c 100e 28bd ee8c f4bc
000000e0: a001 0e3d e3a3 78bc db64 143a 8f04 f93c
000000f0: 36bf e43b 612f c93c a6b3 713b b204 023d

conv10/bias f4 [10]
-0.027173085 0.017507784 -0.005564925 -0.0069123213 -0.006718713 0.08710795 0.01707311 -0.02465365
0.04346553 0.03986499
00000000: 179a debc 7c6c 8f3c f959 b6bb c180 e2bb
00000010: a628 dcbb a765 b23d e8dc 8b3c 74f6 c9bc
00000020: e908 323d 7949 233d

conv1/bias f4 [64]
-0.00050590164 0.0401728 0.007776489 0.00033194156 0.044867218 -0.00090030255 0.037906963 0.01115147
0.023679934 -0.008681933 0.025965333 0.07265854 0.005641024 0.034166377 -0.013004859 0.003775888
0.04768717 0.017423186 0.08051952 0.016292684 0.0031629836 0.08519742 -0.00046437024 0.09517835
0.0009724963 0.042306498 0.04326918 0.010397803 -0.024446817 0.043482777 0.0069632116 -0.00076848856
-0.0278603 -0.014092841 0.018138409 0.02346899 0.0020144796 0.0003163485 -0.0008335406 0.013180174
0.035425182 0.00038377498 0.017413747 0.015561466 0.01801625 0.05107193 0.036865268 0.018596604
0.028100949 -0.00024307423 -0.0065959278 0.0029554446 0.043890897 0.025030224 0.05662056 0.022454623
-0.009120008 0.03383646 -0.017078273 0.007881953 0.024350453 -0.00022245 0.019061025 0.06781117
00000000: 7c9e 04ba 3c8c 243d ebd1 fe3b 7108 ae39
00000010: b0c6 373d 4802 6cba 5544 1b3d a8b4 363c
00000020: 6cfc c13c ab3e 0ebc 40b5 d43c 00ce 943d
00000030: 57d8 b83b 0bf2 0b3d 5512 55bc e374 773b
00000040: 9f53 433d 12bb 8e3c 6be7 a43d 3c78 853c
00000050: 0f4a 4f3b fc7b ae3d b876 f3b9 deec c23d
00000060: 1fef 7e3a 9449 2d3d 063b 313d 8c5b 2a3c
00000070: b144 c8bc ff1a 323d a72b e43b 6574 49ba
00000080: 493b e4bc a9e5 66bc 0097 943c 0a42 c03c
00000090: 5c05 043b 94db a539 f681 5aba a8f1 573c
000000a0: ff19 113d 6835 c939 46a7 8e3c 85f5 7e3c
000000b0: d196 933c cd30 513d 0900 173d e857 983c
000000c0: f633 e63c bee1 7eb9 a722 d8bb 22b0 413b
000000d0: f1c6 333d 2f0c cd3c f6ea 673d c2f2 b73c
000000e0: 166c 15bc 1a98 0a3d bce7 8bbc 4f23 013c
000000f0: 9a7a c73c 7841 69b9 de25 9c3c 95e0 8a3d

squeezenet/conv1/Conv2D f4 [64, 3, 3, 1]
-0.01849646 -0.021272993 -0.007647923 0.0058634193 0.14552057 0.054423705 -0.12364512 -0.028843451
0.06973918 -0.03639623 0.046640422 0.16399145 0.07716097 0.086229496 0.08537863 0.07779269
0.121444665 -0.027527248 0.03583073 0.2044701 0.131582 0.15084419 0.23891726 0.1815708
0.005727988 -0.05307315 -0.046865623 -0.09983639 -0.037243612 0.1051333 0.04534329 -0.0569563
0.07125804 -0.02392703 0.08217352 -0.08903747 0.28031603 0.20143735 0.23407353 0.04407987
0.16391394 0.2037842 0.08370024 -0.05623837 -0.10874632 0.025139602 0.12291461 0.1662687
-0.08658906 0.057046648 -0.03632897 0.038858533 -0.08826975 0.021578996 -0.13188796 -0.022834903
0.08003319 0.050785758 0.08473044 0.18698043 0.08005321 0.012659165 -0.025258595 0.13918708
0.12115493 0.18694472 0.038795978 0.06764963 0.11966978 0.030468669 -0.0041362555 0.0032461695
0.09580786 0.11820867 -0.07305651 0.06999466 0.1035405 -0.04981152 0.064659946 -0.01551364
-0.07436285 -0.030067192 -0.042547997 -0.02632462 -0.041718215 0.068020165 -0.10870693 -0.08494289
-0.10681764 0.056713954 0.05234629 0.05731523 0.06994694 0.17125547 0.17181933 0.05414224
-0.0027339694 0.08260569 -0.055782773 -0.056783393 -0.011448434 -0.12677416 0.061163582 -0.08455702
0.007896079 0.1871979 0.054060224 -0.005611812 0.10227206 0.13706198 0.055823702 0.13518736
0.24967542 0.17386614 0.15415926 0.020855153 -0.02918021 0.19540831 0.15024582 0.16269593
0.10680543 0.16850394 0.08068378 -0.0040494944 -0.061154623 -0.03712643 0.14574209 -0.0046820655
-0.014464742 0.03525716 -0.05246423 -0.10514111 0.08969706 0.0054805716 -0.030600354 0.04015045
0.06773748 0.08418427 0.04197429 0.14035024 -0.03322584 0.08001538 -0.016663995 -0.063084505
-0.08863165 -0.09720787 -0.04000385 -0.026601478 -0.04276552 -0.15866902 0.13519387 0.0719224
-0.09659307 0.003543606 -0.001500494 -0.0054420508 0.13425907 0.2146291 0.10336308 0.12326135
0.14386994 0.07391158 0.16878669 -0.00060778717 0.009699929 -0.019911101 -0.10966948 -0.026583174
0.045847576 -0.059752345 0.026885046 -0.022221575 -0.0039994586 -0.088788725 0.17005418 0.027074069
0.042458594 0.01861401 0.045981314 -0.08724652 0.06940461 0.082687035 0.0044448343 -0.08481401
-0.0062869317 0.09353863 -0.04165645 -0.07255984 0.06668566 0.124160446 -0.0045675645 0.14173594
-0.0010022742 -0.01638703 -0.097246595 0.014066725 -0.16548908 -0.047702186 -0.043919757 0.06279429
-0.044356707 0.016536094 0.066826954 -0.044477597 -0.0106515875 -0.03279682 0.020657597 -0.12556356
-0.05812892 -0.117521144 -0.04126735 -0.012282624 -0.138385 0.0009258792 0.012219961 -0.059426416
-0.04001182 -0.0002126855 -0.033320375 0.049899437 0.12715176 0.041859444 -0.09868096 0.013895044
0.02568221 0.13825513 0.087728225 0.09602908 -0.06546767 -0.032513674 -0.015002322 0.013676282
-0.102087416 -0.115234666 -0.11222788 -0.16188926 0.015320296 0.10243433 0.039545894 0.109486215
0.1263025 0.120960966 0.15754355 0.19576573 0.20264255 0.079603635 0.12689382 0.10690458
0.044180363 -0.0571084 -0.02059778 -0.013609315 -0.08937656 0.06251464 0.12802096 -0.07060405
00000000: e385 97bc b344 aebc 6e9b fabb ed21 c03b
00000010: 5803 153e 64eb 5e3d a739 fdbd 1a49 ecbc
00000020: 6ad3 8e3d 3714 15bd 070a 3f3d 60ed 273e
00000030: 9206 9e3d 1799 b03d feda ae3d c651 9f3d
00000040: fbb7 f83d d380 e1bc 3ec3 123d 9c60 513e
00000050: 6fbd 063e e676 1a3e baa6 743e b2ed 393e
00000060: d9b1 bb3b 3b63 59bd 2bf6 3fbd 0577 ccbd
00000070: c28c 18bd 2150 d73d e3b9 393d 024b 69bd
00000080: bcef 913d 9e02 c4bc 974a a83d 4759 b6bd
00000090: 9585 8f3e 9845 4e3e f9b0 6f3e 188d 343d
000000a0: 0ed9 273e ceac 503e 086b ab3d 345a 66bd
000000b0: 64b6 debd 91f1 cd3c a8ba fb3d 5842 2a3e
000000c0: 9b55 b1bd bfa9 693d b0cd 14bd 202a 1f3d
000000d0: c5c6 b4bd 6fc6 b03c a30d 07be 4310 bbbc
000000e0: 71e8 a33d ba04 503d 2787 ad3d cc77 3f3e
000000f0: f0f2 a33d 6368 4f3c 1deb cebc 0f87 0e3e
00000100: 1320 f83d 706e 3f3e 88e8 1e3d e48b 8a3d
00000110: 6e15 f53d 6e99 f93c 6d89 87bb b0bd 543b
00000120: e936 c43d 6317 f23d a79e 95bd 5c59 8f3d
00000130: 0b0d d43d 2a07 4cbd 6f6c 843d ec2c 7ebc
00000140: 8d4b 98bd 794f f6bc cf46 2ebd bba6 d7bc
00000150: b8e0 2abd 284e 8b3d bda1 debd 8af6 adbd
00000160: 35c3 dabd e44c 683d 1069 563d 60c3 6a3d
00000170: 5740 8f3d 985d 2f3e 68f1 2f3e 41c4 5d3d
00000180: 652c 33bb 2c2d a93d 7a7c 64bd b495 68bd
00000190: 3692 3bbc 16d1 01be aa86 7a3d 3b2c adbd
000001a0: 8e5e 013c ceb0 3f3e 416e 5d3d 4be3 b7bb
000001b0: 0474 d13d fa59 0c3e 65a7 643d 8e6e 0a3e
000001c0: eaaa 7f3e f709 323e eddb 1d3e 6dd8 aa3c
000001d0: 560b efbc 1e19 483e 0ada 193e c399 263e
000001e0: cebc da3d 4c8c 2c3e 8a3d a53d 9fb1 84bb
000001f0: 457d 7abd e211 18bd 6a3d 153e 036c 99bb
00000200: 86fd 6cbc d069 103d bce4 56bd 3954 d7bd
00000210: 18b3 b73d 5e96 b33b 98ad fabc cc74 243d
00000220: f3b9 8a3d cd68 ac3d 3ced 2b3d f9b7 0f3e
00000230: d217 08bd 1bdf a33d ee82 88bc 7332 81bd
00000240: 8384 b5bd eb14 c7bd 14db 23bd 58eb d9bc
00000250: e62a 2fbd 227a 22be 4370 0a3e 0d4c 933d
00000260: 96d2 c5bd d83b 683b 39ac c4ba 3b53 b2bb
00000270: 367b 093e bbc7 5b3e 06b0 d33d 7270 fc3d
00000280: a452 133e f45e 973d 6bd6 2c3e e853 1fba
00000290: 73ec 1e3c 9b1c a3bc 649a e0bd f5c4 d9bc
000002a0: abca 3b3d e0be 74bd 073e dc3c 050a b6bc
000002b0: e40d 83bb ddd6 b5bd af22 2e3e 70ca dd3c
000002c0: 10e9 2d3d 697c 983c e756 3c3d 4eae b2bd
000002d0: 0124 8e3d d257 a93d f9a5 913b f8b2 adbd
000002e0: 9b02 cebb 2e91 bf3d f49f 2abd 419a 94bd
000002f0: 7e92 883d d547 fe3d 82ab 95bb 3a23 113e
00000300: be5e 83ba 183e 86bc 3929 c7bd 1f78 663c
00000310: f875 29be 5e63 43bd 34e5 33bd 4b9a 803d
00000320: 61af 35bd b476 873c 92dc 883d 242e 36bd
00000330: ff83 2ebc f555 06bd 1f3a a93c bc93 00be
00000340: 9718 6ebd edae f0bd f407 29bd 0f3d 49bc
00000350: ccb4 0dbe b4b6 723a 3b36 483c 1d69 73bd
00000360: 6fe3 23bd 5404 5fb9 f27a 08bd 5a63 4c3d
00000370: 1234 023e cf74 2b3d 3e19 cabd 0aa8 633c
00000380: 8063 d23c c192 0d3e dbaa b33d e5aa c43d
00000390: ea13 86bd 0f2d 05bd 4dcc 75bc 7c12 603c
000003a0: 3513 d1bd 2700 ecbd bbd7 e5bd 4cc6 25be
000003b0: fb01 7b3c 17c9 d13d e0fa 213d 4f3a e03d
000003c0: 7155 013e 62ba f73d 1953 213e d076 483e
000003d0: 8781 4f3e 3b07 a33d 74f0 013e caf0 da3d
000003e0: 78f6 343d 7fea 69bd adbc a8bc 9bf9 5ebc
000003f0: 0f0b b7bd ad07 803d ed17 033e db98 90bd

squeezenet/fire2/squeeze1x1/Conv2D f4 [16, 1, 1, 64]
-0.10981564 0.11790899 0.13601655 0.2237852 0.1500513 -0.081424154 0.25133473 -0.12640889
-0.09294991 0.1027648 0.10539313 -0.04804825 0.10889005 0.29208252 0.020246983 -0.05485947
-0.13611984 -0.1570739 0.058963932 0.031638045 -0.1290968 0.035947036 -0.27428445 -0.1542806
0.15576416 0.21513169 -0.032419775 -0.2074124 -0.1209773 0.27137393 0.32578582 -0.13378794
-0.12445118 -0.11144623 -0.30530095 -0.1605618 -0.25544196 -0.14509249 -0.16472062 -0.22640008
-0.28360352 -0.06735681 -0.07768384 0.15566002 -0.06932058 0.0066985553 0.19847216 -0.057075564
-0.014438244 -0.2085493 -0.26391223 0.26882392 0.25295225 0.31782153 -0.17397034 0.16108716
0.0065100165 0.28511134 -0.20293121 -0.18649659 0.0008900483 -0.18027179 0.15514722 0.29240924
-0.21528246 -0.13874091 0.032861892 -0.19381501 0.25191233 -0.23037578 -0.16475359 -0.16701868
-0.031235078 0.16261931 0.09389901 0.14485644 0.22475721 0.26736066 0.15471084 0.14950667
0.06663999 0.06212207 0.217589 0.013270129 -0.1429288 0.08059029 -0.22996645 0.14504018
-0.29112393 -0.046532862 0.14052795 0.073311105 -0.22312818 -0.27400503 -0.23826839 -0.08555436
0.07659127 -0.14849256 -0.024795184 -0.21051145 -0.12164684 -0.012582341 -0.19082549 -0.32904315
0.1456007 -0.21366772 -0.2043837 0.23797515 0.26613802 0.031986002 0.19394559 0.07740075
-0.060894515 -0.056343704 0.07357102 0.24709742 -0.25772995 -0.07852265 -0.08111824 0.0027216293
-0.098878905 0.034899525 -0.10577251 0.25499433 0.30059132 -0.05125393 0.03994935 -0.23090294
-0.13339579 0.21687213 0.25945875 0.12932114 0.34992838 0.12374933 -0.020337097 -0.041989394
-0.08110629 0.013139723 0.0015444265 -0.07912731 -0.024036255 0.015639381 0.062416885 -0.015570533
-0.23896858 0.26791114 -0.16296871 0.2619566 0.33474258 -0.016491788 0.24101888 -0.27434066
0.11165825 -0.26166877 -0.13280912 0.31534657 0.069344684 0.20694283 -0.0029147603 0.3173089
-0.10821132 0.05125632 -0.25932002 0.35818493 -0.15035449 -0.08992153 0.011756011 -0.09670335
-0.14896971 0.37151396 0.16121262 -0.11908973 0.0573047 -0.076458335 0.060983013 -0.17193896
0.25507218 -0.049208526 -0.08827868 -0.03520179 0.258108 0.20107225 0.122437604 0.3273886
0.069686174 -0.1877974 -0.09328745 0.20317656 -0.11329353 -0.07003767 -0.064104415 -0.0024545467
0.06614562 -0.12462605 0.13358319 0.18660428 0.08037712 0.10285128 -0.25198022 0.300363
0.050662413 -0.18806861 -0.010679895 0.20889206 -0.011144495 -0.10124899 0.16216074 -0.14320783
-0.24898806 0.10927814 0.18419918 0.07879209 -0.11742492 0.076401636 -0.063600756 -0.12835842
-0.018264746 0.035910577 -0.14707981 0.1549477 -0.17690589 -0.16612542 0.2628593 -0.20656443
0.27513483 0.23512207 -0.016348189 0.09899005 0.2955593 0.20932336 -0.20393261 -0.018532695
-0.21067575 0.27623644 -0.21928631 0.042401336 -0.2063753 -0.2733699 -0.07218661 -0.083352126
0.24758317 0.15825404 -0.05055304 0.29047847 0.1871762 0.27772734 0.19340086 -0.13330741
0.22324254 -0.17912802 -0.07446674 -0.035574608 0.20508857 -0.0048600165 0.22860183 0.2948038
00000000: 06e7 e0bd 457a f13d ec47 0b3e f327 653e
00000010: 0ca7 193e b5c1 a6bd f2ae 803e 5571 01be
00000020: 865c bebd 5a76 d23d 5ad8 d73d 3ece 44bd
00000030: bf01 df3d d78b 953e 00dd a53c 53b4 60bd
00000040: 0063 0bbe fbd7 20be 2a84 713d e596 013d
00000050: f431 04be 333d 133d 036f 8cbe bcfb 1dbe
00000060: a480 1f3e 7b4b 5c3e 99ca 04bd eb63 54be
00000070: f2c2 f7bd 86f1 8a3e 66cd a63e b5ff 08be
00000080: 43e0 febd ec3d e4bd 6850 9cbe 506a 24be
00000090: 4ac9 82be 2093 14be 86ac 28be 6cd5 67be
000000a0: 7b34 91be 5ef2 89bd b518 9fbd 5765 1f3e
000000b0: f3f7 8dbd 8e7f db3b 493c 4b3e 11c8 69bd
000000c0: 628e 6cbc f38d 55be 811f 87be 4aa3 893e
000000d0: f582 813e 81b9 a23e 4825 32be 08f4 243e
000000e0: fa51 d53b 1dfa 913e 33cd 4fbe f6f8 3ebe
000000f0: 2152 693a 2b99 38be eade 1e3e aab6 953e
00000100: 0173 5cbe 1912 0ebe 319a 063d 7177 46be
00000110: a7fa 803e a1e7 6bbe 2ab5 28be f206 2bbe
00000120: b5e0 ffbc ad85 263e 204e c03d 3f55 143e
00000130: c126 663e 7fe3 883e 856c 1e3e 4718 193e
00000140: 8c7a 883d b673 7e3d a7cf 5e3e f56a 593c
00000150: ed5b 12be 860c a53d 537c 6bbe 6a85 143e
00000160: 320e 95be 3e99 3ebd 8fe6 0f3e 2224 963d
00000170: b77b 64be 634a 8cbe a1fc 73be 2037 afbd
00000180: e2db 9c3d 6f0e 18be 451f cbbc 5090 57be
00000190: fa21 f9bd 2a26 4ebc c267 43be 5878 a8be
000001a0: 5a18 153e b6cb 5abe f649 51be c2af 733e
000001b0: 3e43 883e c103 033d ac99 463e 4984 9e3d
000001c0: 876c 79bd a8c8 66bd 67ac 963d 1b07 7d3e
000001d0: 2ef5 83be 7cd0 a0bd 5221 a6bd 5d5d 323b
000001e0: 0681 cabd cef2 0e3d 429f d8bd 9e8e 823e
000001f0: 1be7 993e a4ef 51bd eea1 233d d271 6cbe
00000200: e898 08be ba13 5e3e c7d7 843e c36c 043e
00000210: d029 b33e 4a70 fd3d fc99 a6bc 12fd 2bbd
00000220: 0e1b a6bd fe47 573c 5b6e ca3a 800d a2bd
00000230: aee7 c4bc 291e 803c d9a8 7f3d 8d1b 7fbc
00000240: 2eb4 74be a62b 893e 45e1 26be 2d1f 863e
00000250: 6163 ab3e c919 87bc a7cd 763e 6176 8cbe
00000260: 15ad e43d 73f9 85be 1dff 07be 1b75 a13e
00000270: 9604 8e3d d2e8 533e 9005 3fbb 5076 a23e
00000280: e69d ddbd 26f2 513d 98c5 84be 0464 b73e
00000290: 87f6 19be c728 b8bd 499c 403c 680c c6bd
000002a0: 848b 18be 1437 be3e ec14 253e 51e5 f3bd
000002b0: 55b8 6a3d 3096 9cbd 53c9 793d c410 30be
000002c0: d298 823e e18e 49bd 74cb b4bd c12f 10bd
000002d0: bb26 843e e2e5 4d3e 91c0 fa3d 7b9f a73e
000002e0: a0b7 8e3d f64d 40be 7e0d bfbd 840d 503e
000002f0: 7006 e8bd e96f 8fbd 2d49 83bd 76dc 20bb
00000300: 5b77 873d f13b ffbd 08ca 083e 3115 3f3e
00000310: c29c a43d b1a3 d23d 8d03 81be 2ec9 993e
00000320: 6483 4f3d 0f95 40be bafa 2ebc cde7 553e
00000330: 6697 36bc a15b cfbd 770d 263e 13a5 12be
00000340: baf6 7ebe 38cd df3d b69e 3c3e bf5d a13d
00000350: 7a7c f0bd 7678 9c3d 1d41 82bd 6470 03be
00000360: f39f 95bc f816 133d 179c 16be 9caa 1e3e
00000370: d126 35be c81c 2abe 7f95 863e a085 53be
00000380: 79de 8c3e d7c3 703e a3ec 85bc 4cbb ca3d
00000390: 8c53 973e dd58 563e b6d3 50be e1d1 97bc
000003a0: 62bb 57be dd6e 8d3e 978c 60be 06ad 2d3d
000003b0: 0c54 53be 24f7 8bbe 93d6 93bd 85b4 aabd
000003c0: 7186 7d3e 590d 223e b410 4fbd 98b9 943e
000003d0: 1eab 3f3e 4732 8e3e e00a 463e bd81 08be
000003e0: b199 643e 566d 37be 0582 98bd aeb6 11bd
000003f0: bd02 523e c640 9fbb 9916 6a3e 86f0 963e

squeezenet/fire2/expand1x1/Conv2D f4 [64, 1, 1, 16]
0.08636842 -0.23922579 0.20247373 -0.08494314 -0.17366254 0.02974926 -0.19892126 -0.14634381
-0.18245831 -0.047249828 -0.0678614 0.27879408 0.20291488 0.29711995 0.13285781 -0.14102237
0.08258808 -0.1295691 -0.06393816 0.21594605 0.18583797 -0.10044003 0.15244858 0.034587312
0.09781396 0.16405828 0.026458587 -0.02471461 0.15067667 -0.25657457 -0.2125218 0.23395272
-0.033284374 0.160549 -0.21955375 -0.13844007 -0.11011585 0.10168022 0.021125214 0.16000028
-0.024210013 -0.17888024 -0.0074522207 -0.12325013 -0.24218175 0.037056513 -0.17207015 -0.061062876
0.03287607 -0.029247437 -0.1487204 0.20775631 -0.1654163 0.116766006 -0.14890383 0.058032572
0.26892713 -0.20476423 -0.12672679 -0.040258426 0.16133523 -0.10099507 -0.17181425 -0.06842841
-0.07487463 0.08348147 -0.045239437 -0.04849108 0.02298503 -0.24758199 0.21979898 0.07934263
0.11014777 0.05822066 -0.025335917 -0.044200752 0.22241944 -0.11676151 -0.0778127 -0.12730722
0.16291213 0.18099459 0.10054612 0.061166454 0.15142228 -0.019711187 0.1643813 -0.0046483953
0.21088609 0.1546197 -0.06547016 0.13690326 -0.022370694 -0.19977571 0.1497293 0.10552495
-0.103959605 0.14658657 0.08524139 -0.24771185 0.20642756 -0.16509601 0.17506391 -0.12544782
0.025129424 0.2879556 0.055716243 -0.20729414 -0.16451734 0.21217473 0.019059984 0.08167311
0.11002389 0.14065212 0.18953644 0.049398914 -0.0060226754 -0.27069345 0.2726369 0.119729266
0.21392845 -0.041674566 0.21276905 -0.21388148 -0.1887817 -0.20830157 -0.21756499 0.0034209397
0.2181166 -0.21258695 -0.033565518 -0.0894035 0.0718539 0.40445334 0.049642637 0.16204752
-0.14795858 0.22074415 -0.20091636 -0.102737114 -0.21369296 0.21686868 0.13169041 0.20476046
0.04366474 0.16722736 0.18058406 -0.15075126 0.061438248 0.21212627 -0.09095706 -0.011498061
-0.12101624 0.22940825 -0.06881379 -0.054958012 -0.15755631 0.05955864 0.27884355 -0.05187478
-0.03990552 0.10634629 0.052074354 0.18122227 0.30431855 -0.025224924 -0.17777868 -0.070827186
-0.24282996 0.10865871 0.10739038 -0.19893894 0.19395335 0.16545314 0.0032343199 0.29786927
-0.1043145 0.17479724 0.0116234645 0.1064135 -0.10401855 0.24190988 -0.082164146 0.106334805
0.16445635 0.13009189 -0.057142086 0.122474216 -0.24162708 -0.2550348 0.023976948 0.21818951
0.17052859 -0.12110262 0.12249908 -0.19582216 0.1467308 -0.287316 -0.1343714 0.23219351
0.067393556 -0.21962321 0.22055624 0.10067898 0.1971228 -0.20248407 0.14041251 -0.15172224
0.03177419 0.15832447 -0.1237847 0.24515836 -0.045925997 -0.12280967 -0.01144356 -0.014417498
0.2572879 0.13789023 0.058486473 0.038243033 -0.16544697 -0.015120944 -0.18897346 -0.1965605
0.04610504 -0.10429484 0.073093876 -0.07871641 0.052586492 0.2618048 0.03412655 0.19510293
0.043005142 -0.009485502 0.12096046 0.15159623 -0.15379044 -0.07319582 0.28155684 0.22728859
-0.15193035 0.1291122 -0.17255524 -0.13745578 -0.023438284 0.101631284 -0.24141502 -0.055599935
-0.07031763 0.045476317 -0.14281268 0.24634023 0.025646508 -0.26716545 -0.11817469 0.004280794
00000000: ede1 b03d 9bf7 74be 4655 4f3e abf6 adbd
00000010: 98d4 31be b8b4 f33c 04b2 4bbe 27db 15be
00000020: 5ad6 3abe 0989 41bd ebfa 8abd 19be 8e3e
00000030: ebc8 4f3e 1b20 983e e10b 083e 2b68 10be
00000040: f023 a93d c3ad 04be 03f2 82bd f620 5d3e
00000050: 4f4c 3e3e 81b3 cdbd 7b1b 1c3e 6dab 0d3d
00000060: af52 c83d e5fe 273e aebf d83c 4b76 cabc
00000070: fc4a 1a3e be5d 83be 519f 59be 4d91 6f3e
00000080: 3255 08bd f566 243e b3d2 60be 3cc3 0dbe
00000090: 6b84 e1bd b83d d03d c90e ad3c 1dd7 233e
000000a0: 1454 c6bc 622c 37be c231 f4bb 906a fcbd
000000b0: 7efe 77be 92c8 173d 2833 30be 111d 7abd
000000c0: 0fa9 063d 5298 efbc 294a 18be 12be 543e
000000d0: e462 29be 0423 ef3d 3f7a 18be 90b3 6d3d
000000e0: d1b0 893e b7ad 51be abc4 01be 05e6 24bd
000000f0: 1035 253e 81d6 cebd 13f0 2fbe 3224 8cbd
00000100: df57 99bd 55f8 aa3d fd4c 39bd 959e 46bd
00000110: 1a4b bc3c 2286 7dbe fc12 613e 647e a23d
00000120: 2795 e13d c978 6e3d 458d cfbc d90b 35bd
00000130: ecc1 633e a920 efbd 445c 9fbd d35c 02be
00000140: 70d2 263e a556 393e 20eb cd3d ad89 7a3d
00000150: 710e 1b3e 5b79 a1bc 9253 283e 9151 98bb
00000160: 86f2 573e a054 1e3e 3815 86bd 5e30 0c3e
00000170: bf42 b7bc 0192 4cbe a352 193e 771d d83d
00000180: c6e8 d4bd ca1a 163e 0a93 ae3d 2da8 7dbe
00000190: bf61 533e ee0e 29be f443 333e 6575 00be
000001a0: 39dc cd3c eb6e 933e b736 643d ea44 54be
000001b0: 3c77 28be 5544 593e af23 9c3c 3b44 a73d
000001c0: 3554 e13d 1c07 103e d715 423e 8456 4a3d
000001d0: dd59 c5bb 5598 8abe 1097 8b3e 9e34 f53d
000001e0: 0f10 5b3e f3b2 2abd 21e0 593e bf03 5bbe
000001f0: fd4f 41be 024d 55be 5bc9 5ebe d831 603b
00000200: f559 5f3e 65b0 59be ff7b 09bd 2f19 b7bd
00000210: 2328 933d 8214 cf3e 1456 4b3d c9ef 253e
00000220: 7482 17be c10a 623e 05bd 4dbe d667 d2bd
00000230: 54d2 5abe d312 5e3e dad9 063e baac 513e
00000240: ccd9 323d a63d 2b3e 07eb 383e 8a5e 1abe
00000250: aca6 7b3d a137 593e b247 babd 5d62 3cbc
00000260: 5dd7 f7bd ffe9 6a3e 3fee 8cbd a71b 61bd
00000270: 7156 21be c3f3 733d 95c4 8e3e a67a 54bd
00000280: f873 23bd 15cc d93d eb4b 553d 5592 393e
00000290: a4cf 9b3e 80a4 cebc 9d0b 36be d80d 91bd
000002a0: 6ba8 78be 7588 de3d 7def db3d a6b6 4bbe
000002b0: b59b 463e 8c6c 293e e2f6 533b 5282 983e
000002c0: d7a2 d5bd 0cfe 323e 5870 3e3c 52ef d93d
000002d0: ad07 d5bd 39b7 773e ad45 a8bd 10c6 d93d
000002e0: 3f67 283e cf36 053e d20d 6abd c3d3 fa3d
000002f0: 176d 77be ec93 82be 4e6b c43c 126d 5f3e
00000300: 0c9f 2e3e a704 f8bd cce0 fa3d 9b85 48be
00000310: 9940 163e 151b 93be a898 09be 23c4 6d3e
00000320: a205 8a3d e8e4 60be 7fd9 613e c830 ce3d
00000330: 8fda 493e fc57 4fbe 4cc8 0f3e 135d 1bbe
00000340: a725 023d cf1f 223e d582 fdbd cb0a 7b3e
00000350: e61c 3cbd a383 fbbd c57d 3bbc 5f37 6cbc
00000360: 3dbb 833e 1933 0d3e 838f 6f3d baa4 1c3d
00000370: ee6a 29be d6bd 77bc 4282 41be 2847 49be
00000380: a3d8 3c3d 8898 d5bd 3eb2 953d 1236 a1bd
00000390: ef64 573d 470b 863e 48c8 0b3d 10c9 473e
000003a0: 2926 303d 1469 1bbc 1eba f73d 0b3c 1b3e
000003b0: 3e7b 1dbe b1e7 95bd 3828 903e 57be 683e
000003c0: a193 1bbe fd35 043e 52b2 30be 35c1 0cbe
000003d0: a501 c0bc 1024 d03d 8035 77be c2bc 63bd
000003e0: b102 90bd 6045 3a3d 7d3d 12be 9d40 7c3e
000003f0: a018 d23c e9c9 88be 9205 f2bd e745 8c3b

squeezenet/fire2/expand3x3/Conv2D f4 [64, 3, 3, 16]
0.023610333 0.036811475 0.082449384 0.02211123 0.025154864 0.009654869 -0.02317811 -0.04701733
0.107583344 -0.03924255 -0.03437445 -0.038841765 0.07255409 0.012781658 0.047773927 -0.019027585
-0.0821765 -0.02875849 0.0669238 0.099649005 -0.07564288 0.026185557 0.03825831 -0.07674842
0.049564004 -0.014763538 0.101939686 -0.030916054 0.07886593 0.100365505 0.07076779 0.02893319
0.025698805 -0.032129835 0.015662538 0.0623767 6.225553e-05 -0.03672894 0.0326819 -0.02110583
0.061785333 0.15069716 0.0016766192 0.15845914 0.08084016 0.1685356 0.09871972 0.04587971
0.13531934 0.008012926 -0.04157812 0.044578258 -0.044878367 0.036783725 0.065385126 0.0049594636
0.07906905 0.03852298 0.10688498 0.12700748 0.09493302 -0.14190747 -0.054592635 -0.014115226
0.117848255 -0.005321615 -0.019225482 0.010521178 0.12755212 0.02105741 0.12177749 0.052155897
0.08221545 -0.044830162 -0.06154255 -0.02243372 -0.08264757 -0.1405796 -0.033536933 -0.06348851
0.09151094 0.008003645 -0.009417813 0.08237676 -0.043308154 -0.030327572 0.14335036 -0.06133204
-0.008113623 0.059677485 -0.10429358 0.0854214 -0.08192303 -0.07389398 -0.03379715 -0.17050491
-0.03885772 0.059862275 -0.057702303 0.07276471 -0.09335561 0.03393103 0.017400697 0.041907128
0.04432591 0.06505506 0.037943646 -0.037129298 0.0551579 -0.11358221 0.040631473 0.072813936
-0.0724391 0.11488593 -0.054458994 -0.1331666 -0.061035413 0.006127887 0.0623389 -0.0062738126
-0.10592281 -0.11791498 -0.08200703 0.018877441 0.068049215 -0.018720808 -0.061785433 -0.060906142
-0.1505102 0.07374248 -0.12882394 -0.023230014 -0.0035581426 -0.10482751 0.045607995 -0.071819
-0.11626663 -0.066979304 -0.12156724 -0.056548025 0.021141656 0.076394714 -0.12250537 0.010656041
-0.09224605 -0.069297105 0.029033149 -0.015559379 0.023411011 -0.0059358827 -0.022982733 0.0046911277
0.018755844 0.022891797 0.026335265 -0.038510915 0.0009400584 -0.0819246 0.041524038 0.043613248
0.047208693 -0.018605055 0.020808337 -0.04276267 -0.06053825 -0.026187347 -0.061684098 0.06649744
0.05789387 0.012985279 0.089786686 -0.015534528 -0.020253005 0.10014553 0.008151184 0.05692527
0.00039181038 0.027948307 -0.06895882 -0.08718447 0.100603215 -0.003412782 0.05392222 0.07573017
-0.0047700135 -0.018504562 -0.052173145 0.0739319 -0.0806543 -0.1213537 -0.08951366 -0.10064964
-0.0019137523 0.061968192 -0.043754354 0.103928484 0.0010168744 0.014304062 -0.0006819259 -0.08163455
-0.06115727 -0.015832001 0.104205616 0.0029208425 0.00266285 -0.06407672 0.07326541 0.06280917
-0.03979464 -0.013237296 -0.06375418 0.03519685 0.013121438 -0.04117992 0.048275664 -0.038486503
0.06510869 0.010566348 0.10745043 0.019144572 0.08787878 0.062102575 0.006280469 0.087210394
-0.054928474 0.094682045 -0.003860807 -0.105956085 0.046141792 -0.11806682 -0.043232657 0.04673183
-0.10972312 -0.09942925 -0.087384686 -0.06061334 0.085423276 -0.09412695 -0.039963953 -0.009593991
0.073382296 0.014592946 0.047252987 0.050449368 0.07802689 -0.06730299 -0.0127209835 0.093693286
-0.053814676 -0.06903828 -0.051109564 0.034781743 0.0036131986 -0.20111614 -0.002642769 0.05305107
00000000: 756a c13c a1c7 163d 39db a83d 9c22 b53c
00000010: 9311 ce3c 752f 1e3c 05e0 bdbc 3e95 40bd
00000020: a854 dc3d ccbc 20bd 39cc 0cbd 8b18 1fbd
00000030: 3d97 943d 296a 513c 98ae 433d bddf 9bbc
00000040: 274c a8bd ed96 ebbc 580f 893d c714 cc3d
00000050: a7ea 9abd 1883 d63c bfb4 1c3d 472e 9dbd
00000060: a003 4b3d c4e2 71bc c1c5 d03d aa43 fdbc
00000070: 7684 a13d 6e8c cd3d b4ee 903d 4c05 ed3c
00000080: 4d86 d23c 939a 03bd b94e 803c b67e 7f3d
00000090: 2f8f 8238 1671 16bd 75dd 053d 22e6 acbc
000000a0: 9e12 7d3d 5b50 1a3e 01c2 db3a 1d43 223e
000000b0: 878f a53d 9994 2c3e 912d ca3d 5dec 3b3d
000000c0: 2791 0a3e a648 033c d24d 2abd b197 363d
000000d0: 61d2 37bd 88aa 163d a3e8 853d ff82 a23b
000000e0: f4ee a13d 46ca 1d3d 83e6 da3d 400e 023e
000000f0: 3e6c c23d 3150 11be 879c 5fbd 8d43 67bc
00000100: 6d5a f13d f160 aebb c27e 9dbc 0561 2c3c
00000110: 069d 023e 9780 ac3c 7a66 f93d 6ca1 553d
00000120: 9360 a83d d59f 37bd 0a14 7cbd ecc6 b7bc
00000130: 2143 a9bd 19f4 0fbe 065e 09bd 4406 82bd
00000140: 166a bb3d b821 033c 2c4d 1abc 26b5 a83d
00000150: e463 31bd 8771 f8bc 70ca 123e 4e37 7bbd
00000160: 00ef 04bc 6170 743d df97 d5bd 6af1 ae3d
00000170: 43c7 a7bd ba55 97bd e16e 0abd d798 2ebe
00000180: 4629 1fbd 2532 753d 4059 6cbd aa05 953d
00000190: 3a31 bfbd 44fb 0a3d e88b 8e3c cfa6 2b3d
000001a0: 168f 353d 963b 853d cc6a 1b3d e414 18bd
000001b0: 40ed 613d ca9d e8bd 306d 263d 791f 953d
000001c0: f35a 94bd 5149 eb3d 6510 5fbd d35c 08be
000001d0: 4500 7abd 71cc c83b 1357 7f3d 8e94 cdbb
000001e0: 0fee d8bd 697d f1bd 4df3 a7bd dda4 9a3c
000001f0: 635d 8b3d 615c 99bc b912 7dbd b878 79bd
00000200: 591f 1abe 4c06 973d 6cea 03be df4c bebc
00000210: ba2f 69bb ceaf d6bd 73cf 3a3d d715 93bd
00000220: 331d eebd 722c 89bd 3ff8 f8bd e79e 67bd
00000230: 4431 ad3c d574 9c3d 18e4 fabd ad96 2e3c
00000240: 7feb bcbd a4eb 8dbd edd6 ed3c c4ec 7ebc
00000250: 73c8 bf3c cb81 c2bb 4946 bcbc 08b8 993b
00000260: dba5 993c 9487 bb3c 0ebd d73c 9fbd 1dbd
00000270: 406e 763a 16c8 a7bd 1c15 2a3d cea3 323d
00000280: e75d 413d a169 98bc 3f76 aa3c e927 2fbd
00000290: f5f6 77bd d986 d6bc 77a8 7cbd cf2f 883d
000002a0: 1f22 6d3d 35c0 543c 15e2 b73d 8884 7ebc
000002b0: a1e9 a5bc 1a19 cd3d 8b8c 053c 792a 693d
000002c0: e66b cd39 d9f3 e43c 483a 8dbd c58d b2bd
000002d0: 0f09 ce3d fba8 5fbb 8cdd 5c3d 6b18 9b3d
000002e0: c64d 9cbb e196 97bc 82b3 55bd 9c69 973d
000002f0: 152e a5bd 4a88 f8bd f052 b7bd 6621 cebd
00000300: dfd6 faba 5cd2 7d3d c437 33bd 75d8 d43d
00000310: a548 853a 965b 6a3c 46c3 32ba 0430 a7bd
00000320: 0c80 7abd 1db2 81bc c169 d53d 9b6b 3f3b
00000330: 3683 2e3b a83a 83bd 2d0c 963d 18a2 803d
00000340: b4ff 22bd 3ee1 58bc 8d91 82bd 922a 103d
00000350: 4dfb 563c 47ac 28bd b4bc 453d 06a4 1dbd
00000360: b457 853d 7a1e 2d3c f90e dc3d 14d5 9c3c
00000370: caf9 b33d 455f 7e3d 64cc cd3b 5d9b b23d
00000380: aefc 60bd a9e8 c13d 9805 7dbb 81ff d8bd
00000390: 2dff 3c3d 04cd f1bd ba14 31bd e069 3f3d
000003a0: 84b6 e0bd 90a1 cbbd bef6 b2bd b245 78bd
000003b0: 66f2 ae3d a1c5 c0bd 3eb1 23bd 1d30 1dbc
000003c0: 7549 963d 4017 6f3c 598c 413d ffa3 4e3d
000003d0: 90cc 9f3d 26d6 89bd ac6b 50bc 44e2 bf3d
000003e0: c76c 5cbd f163 8dbd 4358 51bd 4d77 0e3d
000003f0: 6acb 6c3b 64f1 4dbe 4e32 2dbb 144c 593d
