Raspberry files/Results/model_50.tflite (tflite, 496996 bytes, 28 tensors)

squeezenet/fire5/squeeze1x1/BiasAdd/ReadVariableOp f4 [32]
0	0xbd007b14	-0.031367376
1	0x3ae8f729	0.0017773855
2	0x3e0e013c	0.13867658
3	0x3c1e7609	0.009671696
4	0xbb19ed17	-0.0023487264
5	0x3d07c100	0.033143044
6	0x3ac740d8	0.001520182
7	0x3df4c8c7	0.11952358
8	0xbd894fb2	-0.06704654
9	0x3e135f4a	0.14391819
10	0xbd4dcd3d	-0.05024456
11	0x3da291b9	0.07937951
12	0xbd860a20	-0.065449
13	0x3de65e59	0.11248464
14	0x3e1a94fd	0.15095897
15	0x3d8b26e8	0.0679453
16	0x3c772192	0.015083687
17	0x3d807dfd	0.0627403
18	0x3d443569	0.0479025
19	0x3c1abdc8	0.009444661
20	0x3d94e706	0.07270627
21	0x3d0a09e8	0.033700854
22	0x3d4fa99a	0.050698854
23	0x3e48067d	0.19533725
24	0x3de011bb	0.10940882
25	0x3dd3bd0e	0.10338794
26	0x3d9c870f	0.07642948
27	0x3d6af0e8	0.057358652
28	0x3ca05f59	0.019576715
29	0x3dc44fb7	0.09585517
30	0x3cb12785	0.02162529
31	0xbdc7eb29	-0.0976165

squeezenet/fire5/expand3x3/BiasAdd/ReadVariableOp f4 [128]
0	0xbda1e531	-0.07905043
1	0xbd99b630	-0.07505453
2	0xbc529203	-0.012852195
3	0xbbd78a68	-0.0065777786
4	0xbd6c0822	-0.057624944
5	0x3c8fea6a	0.017567832
6	0xbdd2dbb8	-0.10295814
7	0xbd00e675	-0.03146978
8	0x3c286c20	0.010279685
9	0xbd917d5a	-0.07103987
10	0xbc28b027	-0.010295904
11	0xbe14da01	-0.14536287
12	0xbd20fb97	-0.039302435
13	0x3dd49280	0.10379505
14	0xbb9c39b7	-0.0047676223
15	0x3dae6853	0.08515992
16	0xbc8b4c3e	-0.017004129
17	0xbd40f32c	-0.047106907
18	0xbe011264	-0.12604672
19	0xbe2dec79	-0.16984738
20	0xbda3b2bf	-0.079930775
21	0xbdc1e2cf	-0.094670884
22	0xbd879b3c	-0.066214055
23	0xbe155c8a	-0.14586082
24	0xbb17b3fb	-0.0023148048
25	0xbdac4201	-0.08411027
26	0xbc53e3f1	-0.012932763
27	0x3d9d8657	0.07691639
28	0xbcf5c3f4	-0.030000664
29	0x3cdfaf6b	0.027305325
30	0xbdfa474d	-0.12220631
31	0xbe1a3b5d	-0.15061708
32	0x3d7ef09a	0.062241174
33	0xbd0809c7	-0.03321245
34	0xbd0193b7	-0.031635012
35	0xbe254695	-0.16140206
36	0xbd5f13e6	-0.054462336
37	0x3cc0d82f	0.023540584
38	0xbd40541e	-0.04695522
39	0xbcfcc958	-0.030857727
40	0x3d66de29	0.056364212
41	0x3e083f91	0.13305499
42	0xbd0b7b11	-0.034052912
43	0xbdbe77cc	-0.09300193
44	0xbc313b86	-0.010817414
45	0x3cc4d12f	0.024025528
46	0xbcb406be	-0.021975871
47	0xbe8ca9cc	-0.27473295
48	0xbbabdf59	-0.005245131
49	0xbd8f8ac7	-0.070088916
50	0xbd78cfe3	-0.06074513
51	0x3df4a521	0.11945558
52	0xbdef9972	-0.11699189
53	0xbce5a770	-0.028033942
54	0xbe1e9d71	-0.15489747
55	0xbde6e742	-0.11274578
56	0xbd13ef99	-0.03611717
57	0x3cd7329c	0.02626925
58	0xbd90f986	-0.07078843
59	0xbe4b50f1	-0.19855095
60	0xbe25d0ef	-0.16192983
61	0xbd12adea	-0.03581039
62	0xbde134a9	-0.10996372
63	0xbc3db4b9	-0.011578732
64	0x3d478f16	0.04872044
65	0xbe7fbdb1	-0.24974705
66	0xbe4ebc91	-0.2018912
67	0xbd3c2346	-0.045932077
68	0xbe006cc4	-0.12541491
69	0x3d90f068	0.07077104
70	0x3db0acb5	0.08626691
71	0xbc65a23a	-0.014015729
72	0xbd67021a	-0.05639849
73	0xbdb15cc4	-0.08660272
74	0x3d137181	0.035996918
75	0xbe1a82c6	-0.15088949
76	0x3dd30b1e	0.10304855
77	0xbc57ce26	-0.013171708
78	0x3d6fbd41	0.058530096
79	0x3c66f872	0.01409732
80	0xbe322a31	-0.17398907
81	0x3d0ef0bc	0.03489755
82	0x3df93bf2	0.12169637
83	0xbc0c36e6	-0.008558011
84	0xbe0dbc3d	-0.13841338
85	0xbe068298	-0.13135755
86	0xbd2dfa3e	-0.042474978
87	0x3a9d9e05	0.0012025243
88	0xbd8bf0fb	-0.06833073
89	0x3c159ae5	0.009131168
90	0xbd5da2b2	-0.054110236
91	0x3dce3b72	0.10069932
92	0xbc315ef5	-0.010825862
93	0xbd2e39ba	-0.04253552
94	0xbd372757	-0.04471525
95	0xbd1e4f39	-0.03864977
96	0xbb8e479c	-0.0043420326
97	0xbe123314	-0.14277297
98	0x3d07ff43	0.03320242
99	0x3cb6af68	0.022300437
100	0xbcdaedac	-0.026724659
101	0xbc1e513e	-0.009662924
102	0xbd81d4ed	-0.063394405
103	0x3bfd50c6	0.007730576
104	0xbdcc2397	-0.09967726
105	0xbe1005c8	-0.14064705
106	0xbd5271ac	-0.051377937
107	0xbc4180c8	-0.011810489
108	0xbd81b1ad	-0.06332717
109	0x3d31bd99	0.043393705
110	0xbda3bfc3	-0.0799556
111	0xbe0778ff	-0.1322975
112	0x3baf1f16	0.005344282
113	0x3c3bf054	0.011470873
114	0xbbea15d1	-0.007143714
115	0xbc8f94a9	-0.017526941
116	0x3db03964	0.086046964
117	0x3c64dcfc	0.013968702
118	0x3caa32e6	0.020776223
119	0x3d8e1232	0.06937064
120	0x3d8b8026	0.06811552
121	0xbd0b4a4c	-0.034006402
122	0xbbcb0afc	-0.006196378
123	0xbcd54d1f	-0.02603775
124	0xbd0fd1d2	-0.03511221
125	0xbd86f480	-0.065896034
126	0xbdd9deaf	-0.10638177
127	0xbddc4fda	-0.10757418

squeezenet/fire5/expand1x1/BiasAdd/ReadVariableOp f4 [128]
0	0xbe083bf0	-0.13304114
1	0xbdc2517c	-0.09488198
2	0xbd6c70c5	-0.057724733
3	0xbdf73dba	-0.1207232
4	0xbdd6c140	-0.10486078
5	0xbdc0bbee	-0.09410845
6	0xbe66f0a4	-0.22552735
7	0x3d7c88c6	0.061653875
8	0xbe3a168d	-0.18172665
9	0xbe2a80a2	-0.16650632
10	0xbb4279b8	-0.00296746
11	0xbdc1e606	-0.094677016
12	0xbd9a9a6d	-0.07548986
13	0xbde50f24	-0.111845285
14	0xbd1c53a1	-0.038165692
15	0x3cd2da45	0.025738845
16	0xbdc116ea	-0.09428199
17	0x3d297301	0.041369442
18	0xbd946cc1	-0.07247306
19	0xbe5dbc9d	-0.21653982
20	0xbeb6f109	-0.3573077
21	0xbe1b13de	-0.15144297
22	0x3da595b6	0.08085196
23	0xbc9a52ce	-0.018838312
24	0xbdfbf43d	-0.12302444
25	0x3d83b9cd	0.06431923
26	0xbcbbe4e8	-0.0229363
27	0x3de2c99d	0.11073611
28	0x3db77196	0.08957212
29	0xbe4a15f0	-0.19734931
30	0xbe62dfb0	-0.22155643
31	0xbdc330d1	-0.09530795
32	0xbe110dab	-0.1416537
33	0xbe1dc056	-0.15405402
34	0xbe6c04e0	-0.23048735
35	0xbe34affa	-0.17645255
36	0xbda43d90	-0.080195546
37	0xbd81767a	-0.06321426
38	0xbd7d6457	-0.06186327
39	0xbe21976e	-0.15780422
40	0xbe573304	-0.21015555
41	0xbdb284f5	-0.08716766
42	0xbe218d48	-0.15776551
43	0xbe7f08f3	-0.24905758
44	0xbe0a3899	-0.13498153
45	0x3d838920	0.06422639
46	0xbdd00d1c	-0.101587504
47	0xbcc4dc3e	-0.0240308
48	0xbdd66d42	-0.10470058
49	0xbe8a08d3	-0.26959857
50	0xbd96a8e9	-0.07356436
51	0xbc07d8ae	-0.008291407
52	0xbe61aa37	-0.22037588
53	0x3d8cbb3b	0.06871649
54	0x3e167a6b	0.14695136
55	0xbe71d8a5	-0.236178
56	0xbe87c809	-0.26519802
57	0xbe662e6f	-0.2247865
58	0xbe725f40	-0.23669147
59	0x3d0b9a20	0.034082532
60	0xbe266e77	-0.16253076
61	0xbd86b457	-0.06577366
62	0x3c8220f0	0.015884846
63	0xbd98d766	-0.07462959
64	0xbde5cc49	-0.11220605
65	0xbd48dd47	-0.04903915
66	0x3c13b02c	0.009014171
67	0x3dd8a381	0.10578061
68	0xbdfc7620	-0.12327218
69	0xbd23b59c	-0.039968118
70	0x3debe2ff	0.115179054
71	0xbe267791	-0.16256548
72	0xbe07aa3c	-0.13248533
73	0xbd916842	-0.07099964
74	0xbe0579f1	-0.13034798
75	0xbd8f69c1	-0.07002593
76	0xbe177f77	-0.14794718
77	0xbe1e231d	-0.15443082
78	0xbe1206df	-0.14260434
79	0xbb91ae44	-0.004445823
80	0xbe8401bf	-0.25782582
81	0xbd607b28	-0.05480495
82	0xbe26e56b	-0.16298454
83	0xbdea641d	-0.11444876
84	0x3d5e5c91	0.054287497
85	0x3e1b0934	0.1514023
86	0xbe0ac6fd	-0.1355247
87	0xbdc33e8d	-0.09533415
88	0xbbe8f456	-0.0071092052
89	0x3df62fe9	0.12020857
90	0xbdae746c	-0.085182995
91	0x3d5e785e	0.05431401
92	0xbd9e9fe9	-0.07745344
93	0xbe617289	-0.22016348
94	0xbe039075	-0.12848075
95	0xbdff7c45	-0.124748744
96	0x3de9f57b	0.11423775
97	0x39e5dd14	0.00043843
98	0x3d7db142	0.061936624
99	0x3cabba92	0.020962987
100	0xbcca64dd	-0.024706298
101	0xbe14868e	-0.14504454
102	0xbd8a107f	-0.06741428
103	0x3d0a239b	0.033725362
104	0xbe011fa2	-0.12609723
105	0xbe44a6b4	-0.19204217
106	0xbdfff3a1	-0.124976404
107	0xbd56cfb9	-0.052444194
108	0xbd46145c	-0.04835926
109	0xbced4a3d	-0.028966064
110	0xbd622992	-0.055215426
111	0xbe29726e	-0.16547558
112	0xbcc640aa	-0.024200756
113	0xbdf06b3b	-0.117392026
114	0x3d90c063	0.07067945
115	0xbe4cfb18	-0.2001766
116	0xbc9a24ea	-0.01881643
117	0x3cf49e76	0.029860716
118	0xba949c62	-0.001133811
119	0xbdf03ff2	-0.117309466
120	0x3c5e4bd6	0.013567885
121	0xbe31b457	-0.1735395
122	0xbd4c56b9	-0.049887393
123	0xbc48df7e	-0.012260316
124	0xbe822c1a	-0.25424272
125	0x3e0849c8	0.13309395
126	0xbd864bcc	-0.06557426
127	0xbe0fb0ce	-0.1403229

squeezenet/fire4/squeeze1x1/BiasAdd/ReadVariableOp f4 [32]
0	0x3c85fc96	0.016355794
1	0x3ddae9fc	0.1068916
2	0x3c9f3721	0.019435467
3	0xbc53253d	-0.012887296
4	0x3dbf0262	0.09326626
5	0x3d0e9e64	0.03481902
6	0xbd2e3193	-0.042527746
7	0x3e57766b	0.21041267
8	0x3e1f433c	0.15552992
9	0x3cdd2d41	0.026999118
10	0x3bbad5f3	0.0057017743
11	0x3b979902	0.0046263942
12	0x3ea18fe3	0.3155509
13	0x3e267a2d	0.16257544
14	0x3d4adb84	0.049525753
15	0x3d533d2e	0.051572017
16	0xbaa6d9e6	-0.0012729734
17	0x3c9f032b	0.01941069
18	0x3d36989c	0.044579133
19	0xbd96d43a	-0.07364698
20	0xbd6c621c	-0.057710752
21	0xbbd5c6af	-0.006523929
22	0x3da25866	0.07927017
23	0xbca97fb3	-0.020690775
24	0x3e840dc0	0.2579174
25	0xbdc37a9e	-0.09544872
26	0x3d47e46a	0.048801817
27	0x3dcf4aec	0.10121712
28	0xbae25b7c	-0.0017269696
29	0x3a947c3e	0.0011328531
30	0xbce891be	-0.028389808
31	0x3daece0d	0.08535395

squeezenet/fire4/expand3x3/BiasAdd/ReadVariableOp f4 [128]
0	0xbdab0034	-0.08349648
1	0x3dbc1769	0.09184153
2	0x3e0042e1	0.12525512
3	0xbd7facf8	-0.062420815
4	0x3d327cd5	0.04357608
5	0x3d67f7fa	0.056632973
6	0xbd1174c8	-0.035511762
7	0x3d340ac0	0.043955564
8	0x3c2317eb	0.009954433
9	0x3dac7602	0.08420946
10	0x3d6b9658	0.057516426
11	0x3b39776e	0.0028299945
12	0xbc073f7c	-0.008254882
13	0xbc808eb2	-0.015693042
14	0x3d8bca39	0.0682568
15	0xbd2d6291	-0.04233033
16	0xbe005105	-0.12530906
17	0x3e16b94e	0.14719126
18	0xbda4a463	-0.08039167
19	0x3e0f519b	0.13995974
20	0xbd8d1b0b	-0.06889924
21	0x3dfe96be	0.124310955
22	0x3c50c189	0.012741455
23	0xbd4ac9c5	-0.04950883
24	0x3d17e85e	0.037086837
25	0x3d3c0c19	0.045909975
26	0xbdfc0cb6	-0.12307112
27	0xbc151d7d	-0.009101269
28	0x3d55cc58	0.05219683
29	0x3d1553ad	0.036456753
30	0xbd3d6fe2	-0.046249278
31	0x3d7b213c	0.06131099
32	0x3e073a68	0.13205874
33	0x3d1bf5db	0.038076263
34	0x3e183fa8	0.14868033
35	0x3c208f3b	0.009799774
36	0xbde651a2	-0.11246039
37	0xbcc3f431	-0.02392015
38	0x3d526850	0.05136901
39	0xbd585c24	-0.052822247
40	0xbd7f4bc0	-0.0623281
41	0x3db09460	0.0862205
42	0xbc0ccfcb	-0.008594464
43	0xbe2c2bf5	-0.16813643
44	0x3db0d39e	0.08634113
45	0x3d903f8b	0.0704337
46	0xbcc58d0e	-0.024115112
47	0x3d4f3f38	0.0505974
48	0xbe17200e	-0.14758322
49	0xbdbfdcf0	-0.09368312
50	0x3dbf4f90	0.09341347
51	0x3db36bfb	0.0876083
52	0xbd6f34b9	-0.05839989
53	0x3bb2a626	0.0054519353
54	0x3d76ce3c	0.060255274
55	0x3dc54e0d	0.09634028
56	0x3d147e47	0.03625324
57	0x3d62846d	0.055302072
58	0x3d7044a1	0.0586592
59	0xbbe57512	-0.0070024813
60	0xbce537d6	-0.027980726
61	0x3d9976ca	0.0749336
62	0x3ab463c9	0.0013762648
63	0xbcaf5926	-0.021404814
64	0x3d5fc303	0.054629337
65	0xbcd8dde0	-0.026472986
66	0x3c6560be	0.014000116
67	0x3cfe0df2	0.031012509
68	0x3cf75b70	0.030194968
69	0x3db4cd4c	0.0882822
70	0x3d0e58bf	0.034752604
71	0xbd432e44	-0.047651544
72	0x3ce1ae71	0.027549
73	0x3d5a03af	0.05322617
74	0xbc693ca6	-0.014235651
75	0xbd288d30	-0.041150272
76	0x3d810c5f	0.06301188
77	0xbbf6561e	-0.00751759
78	0x3d2b7960	0.0418638
79	0xbdf4179a	-0.11918564
80	0x3dd6a493	0.10480609
81	0xbc2d41d8	-0.01057478
82	0x3e1731b7	0.14765058
83	0x3da952c6	0.08267741
84	0xbc689017	-0.01419451
85	0xbd1cbd77	-0.038266625
86	0xbd572786	-0.052527927
87	0x3bfb8c9d	0.0076766745
88	0x3d2c6f00	0.042098045
89	0x3d9983df	0.074958555
90	0xbc793eff	-0.015212773
91	0xbdc022ba	-0.093816236
92	0x3cac301a	0.02101903
93	0x3df93432	0.121681586
94	0x3dd56abd	0.10420749
95	0xbc3f5d32	-0.011679934
96	0x3da87ae6	0.08226566
97	0x3da26cb5	0.079308905
98	0x3d2536ef	0.040335592
99	0x3d7964a9	0.060887013
100	0xbd65d4d8	-0.056111187
101	0x3d2dad22	0.04240144
102	0xbdf12cdb	-0.117761336
103	0x3dc33cc6	0.09533076
104	0x3d1059ca	0.03524188
105	0xbdc2c97d	-0.09511087
106	0xbcb53012	-0.022117648
107	0x3d409f9b	0.04702721
108	0x3ce2543a	0.027628053
109	0x3e2733d3	0.16328363
110	0xbe080d81	-0.13286401
111	0x3a62393f	0.0008629746
112	0x3dc9de72	0.09856881
113	0x3d15bca5	0.03655686
114	0x3d20cc1c	0.039257154
115	0x3dce216a	0.10064967
116	0xbd00754d	-0.031361867
117	0x3c9bd335	0.01902161
118	0xbc468980	-0.0121177435
119	0x3d6e387d	0.05815934
120	0xbe28180a	-0.1641542
121	0xbcf90cda	-0.030401636
122	0x3e400d36	0.1875504
123	0x3c8be78d	0.017078185
124	0xbcdf4d31	-0.027258487
125	0xbe07916a	-0.13239065
126	0x3db47429	0.08811218
127	0x3d2b0f96	0.04176291

squeezenet/fire4/expand1x1/BiasAdd/ReadVariableOp f4 [128]
0	0x3dd12183	0.1021147
1	0xbe09604c	-0.1341564
2	0xbced6229	-0.02897747
3	0xbda18776	-0.07887165
4	0x3e05bef1	0.1306112
5	0xbd75be31	-0.059995834
6	0xbd9bdda0	-0.07610631
7	0xbbef3a46	-0.007300648
8	0x3d4e1a01	0.050317768
9	0x3c9fc3d7	0.019502563
10	0x3e03edce	0.12883684
11	0xbd730b22	-0.05933679
12	0x3d033a1c	0.03203784
13	0xbc5df0b6	-0.0135461595
14	0xbc686abe	-0.014185606
15	0xbe0deb6d	-0.13859339
16	0x3d2365ea	0.039892115
17	0xbd5be826	-0.05368819
18	0xbd5b015d	-0.053468097
19	0xbd256bc6	-0.040385984
20	0xbbb665f9	-0.0055663553
21	0xbe0634a1	-0.13106014
22	0xbe109150	-0.14117932
23	0x3a8a8724	0.001056884
24	0xbd280300	-0.041018486
25	0xbdce4f53	-0.10073724
26	0x3c2aee3a	0.010432774
27	0x3ceffa5f	0.02929419
28	0x3b79b030	0.00380994
29	0x3d5cd72d	0.053916145
30	0xbdd7607e	-0.10516451
31	0xbdcca887	-0.099930815
32	0xbd093780	-0.033500195
33	0xbd7c7747	-0.06163719
34	0x3d3901d6	0.045167767
35	0xbcbe1c05	-0.02320672
36	0xbcb4ddf4	-0.022078492
37	0x3d5809a8	0.052743584
38	0x3cf020d6	0.029312532
39	0x3caa4366	0.020784091
40	0xbd4c4d91	-0.04987866
41	0xbc15ac12	-0.009135263
42	0x3db334f0	0.087503314
43	0xbd90ab7c	-0.07063958
44	0xbd86eed4	-0.065885216
45	0xbe08aa55	-0.13346227
46	0x3db1e377	0.086859636
47	0x3cddc704	0.027072437
48	0xbddc5e73	-0.10760202
49	0xbcabd028	-0.02097328
50	0xbca7b4ed	-0.020472014
51	0xbd4bb25e	-0.04973065
52	0xbc8e05a6	-0.017336678
53	0xbb45e6ca	-0.0030197375
54	0x3c9f0fb5	0.01941667
55	0xbdaa520a	-0.08316429
56	0xbd91e330	-0.07123411
57	0xbdd28ea7	-0.10281115
58	0x3da62eda	0.08114405
59	0x3bdaf886	0.0066824583
60	0x3d8de2c8	0.06928021
61	0xbd7d7e91	-0.06188828
62	0xbda78d1a	-0.0818121
63	0x3dd42060	0.103577375
64	0xbc7508bd	-0.014955697
65	0x3d7aad44	0.061200395
66	0x3d8cc120	0.06872773
67	0xbd0bf733	-0.034171294
68	0xbda2da78	-0.07951826
69	0xbd1d17f6	-0.03835293
70	0x3b1d7b5a	0.0024029822
71	0xbd001315	-0.031268198
72	0x3d99b07a	0.07504363
73	0x3dfdf7c8	0.12400776
74	0xbd5d6665	-0.05405273
75	0xbdb86791	-0.09004129
76	0xbdd947aa	-0.10609372
77	0xbdfcc6a3	-0.123425744
78	0x3bd699d7	0.006549101
79	0x3df610e1	0.12014938
80	0x3d149949	0.036278997
81	0x3d8677f6	0.065658495
82	0xbcd0cdce	-0.02548876
83	0x3ceb663c	0.028735273
84	0xbd8dcade	-0.069234595
85	0x3dd5748e	0.10422622
86	0xbd117425	-0.035511155
87	0xbd2e14fc	-0.04250048
88	0xbe067422	-0.13130239
89	0x3d172d61	0.03690851
90	0xbd867493	-0.065652035
91	0x3db0b928	0.08629066
92	0xbcf7874e	-0.030215885
93	0xbdff1722	-0.12455584
94	0xbce5c8e3	-0.028049892
95	0x3db9d791	0.09074319
96	0xbdba5741	-0.090986736
97	0xbddb1dcc	-0.10699043
98	0xbd9b3c01	-0.07579804
99	0xbd710596	-0.058843218
100	0x3cc28e19	0.023749398
101	0x3e4b0cce	0.19829103
102	0x3ca0bcb6	0.019621234
103	0xbd6521d9	-0.055940483
104	0xbde63d0b	-0.11242112
105	0xbc8bf3c3	-0.017084008
106	0x3d2df650	0.04247123
107	0xbbbe515d	-0.005808039
108	0xbddfd557	-0.10929363
109	0xbd2d4530	-0.04230231
110	0xbe34898e	-0.17630598
111	0x3de5ea1e	0.11226295
112	0x3cf94383	0.0304277
113	0xbd814080	-0.063111305
114	0xbdef3fab	-0.116820656
115	0xbd1e92a1	-0.038714055
116	0x3df2970e	0.11845218
117	0x3ce76f8d	0.028251434
118	0x3d21615b	0.039399486
119	0xbd7918d3	-0.06081469
120	0xbda2cc07	-0.079490714
121	0xbdd2feb4	-0.10302487
122	0xbe3c93aa	-0.18415704
123	0xbd52b412	-0.05144126
124	0xbd62bc59	-0.055355404
125	0xbd78d5dc	-0.060750827
126	0xbdf195c1	-0.117961414
127	0xbdcac08e	-0.09900008

squeezenet/fire3/squeeze1x1/BiasAdd/ReadVariableOp f4 [16]
0	0x3d724d5d	0.05915581
1	0x3d6afebf	0.05737185
2	0x3d862b62	0.06551243
3	0x3d100792	0.03516347
4	0xbdf68d31	-0.12038649
5	0x3dacf84a	0.08445795
6	0x3db88dcd	0.09011421
7	0x3e2666a7	0.16250096
8	0x3dccc24e	0.09997998
9	0x3d9dd3ce	0.07706414
10	0x3c009052	0.007846909
11	0x3deee5f6	0.11664955
12	0xbdb992e8	-0.09061223
13	0xbc2414bb	-0.010014708
14	0x3d3642cc	0.044497296
15	0xbc422020	-0.0118484795

squeezenet/fire3/expand3x3/BiasAdd/ReadVariableOp f4 [64]
0	0xbbc17ba9	-0.005904634
1	0xbc53b927	-0.012922562
2	0xbe26f321	-0.16303684
3	0x3ba7ffc1	0.005126924
4	0xbd8acd35	-0.067774214
5	0xbd3786cc	-0.044806287
6	0xbd041def	-0.03225511
7	0xbcd0ae8b	-0.025473854
8	0x3ddb6788	0.107131064
9	0x3bb22570	0.005436592
10	0x3cc0aa41	0.023518683
11	0x3ccefc87	0.025266899
12	0xbcf8473b	-0.030307403
13	0xbdb03ca3	-0.086053155
14	0x3c8f99e8	0.017529443
15	0xbcdd13ff	-0.026987074
16	0x3c187208	0.009304531
17	0xbc00ac72	-0.007853614
18	0xbcf3f486	-0.029779684
19	0xbc715325	-0.014729296
20	0x3d91b77e	0.071150765
21	0xbd8c2e78	-0.06844801
22	0xbd969d67	-0.07354241
23	0x3d293cd7	0.041317787
24	0xbd3e9320	-0.046527028
25	0x3ce2dc03	0.0276928
26	0x3cbf2962	0.023335163
27	0xbde71393	-0.1128303
28	0x3c12e084	0.0089646615
29	0xbd9d65fa	-0.07685466
30	0x3ac6fe09	0.001518191
31	0xbd3b9ffe	-0.045806877
32	0xbda1e92d	-0.07905803
33	0xbd03aa40	-0.032144785
34	0x3dc8a8be	0.0979781
35	0x3c85aaf1	0.016316863
36	0xbd6c4241	-0.057680372
37	0xbdcff406	-0.10153966
38	0xbd2fe0dc	-0.042939052
39	0xbd5f01e9	-0.05444518
40	0xbc86f313	-0.016473329
41	0xbc4a1a00	-0.0123353
42	0xbd22f795	-0.039786894
43	0xbc00d50a	-0.0078632925
44	0xbcafd3e4	-0.021463342
45	0x3c98da8f	0.018658904
46	0x3d20ef24	0.039290562
47	0x3d244530	0.040105045
48	0x3bcf6656	0.006329338
49	0xbdba073c	-0.09083411
50	0xbd686330	-0.056735218
51	0xbcb42a28	-0.021992758
52	0xbcfdd1a3	-0.030983752
53	0xbc900399	-0.01757984
54	0x3cc46b38	0.023976907
55	0xbd8ca830	-0.06868017
56	0xbd8a332d	-0.06748042
57	0xbd22cc1e	-0.039745443
58	0xbc9baf6e	-0.01900455
59	0x3ae4ed58	0.0017465753
60	0xbd8b9699	-0.068158336
61	0xbc8206f1	-0.01587245
62	0x3d5f9a2c	0.05459039
63	0xbd864664	-0.06556395

squeezenet/fire3/expand1x1/BiasAdd/ReadVariableOp f4 [64]
0	0xb96813b0	-0.00022132578
1	0xbc932534	-0.017962076
2	0xbd0bc6e3	-0.03412522
3	0xbe226775	-0.15859778
4	0xbd36f7a5	-0.044669766
5	0xbdbcc9a2	-0.09218146
6	0xbde979b6	-0.11400168
7	0x383ca57c	4.4976812e-05
8	0xbe1faf63	-0.15594248
9	0xbcefa923	-0.029255455
10	0x3c057f1d	0.008147982
11	0xbde4c5f7	-0.11170571
12	0xbe2d022d	-0.16895361
13	0xbdf2e915	-0.11860863
14	0xbcc3c83e	-0.023899194
15	0xbe04fabc	-0.12986273
16	0xbe792bf8	-0.24333179
17	0x3b12b6ae	0.0022386718
18	0xbdc7e354	-0.09760156
19	0xbe46cc01	-0.19413759
20	0xbb3c96d7	-0.002877643
21	0xbd9713ef	-0.07376849
22	0xbca60e76	-0.020270567
23	0xbdcc76bd	-0.09983585
24	0x3c11e60e	0.008904947
25	0xbd302c54	-0.043011025
26	0xbdcf4378	-0.101202905
27	0xbc95f8f0	-0.01830718
28	0xbe21e905	-0.15811546
29	0xbde1f435	-0.11032907
30	0xbe547c01	-0.20750429
31	0xbdde988a	-0.10868938
32	0xbda6eb9a	-0.08150406
33	0x3b955410	0.00455714
34	0xbd40fb06	-0.047114395
35	0xbe435674	-0.19075948
36	0xbe309fde	-0.17248484
37	0x3ca9099a	0.020634461
38	0xbdc1e407	-0.09467321
39	0xbba63374	-0.0050720517
40	0xbde6cb2d	-0.112692215
41	0xbda9ab30	-0.082846045
42	0xbd97842e	-0.07398258
43	0xbc872e15	-0.016501466
44	0xbda2eb34	-0.07955018
45	0xbc33be93	-0.010970729
46	0xbdc033f2	-0.09384908
47	0x3c983c83	0.018583542
48	0x3cde5749	0.02714123
49	0xbd103cb9	-0.03521416
50	0xbe326db5	-0.17424662
51	0xbb037cb4	-0.0020063343
52	0xbdf9bf38	-0.12194675
53	0xbe0f775e	-0.14010379
54	0xbd0e1802	-0.034690864
55	0xbdeab73e	-0.11460732
56	0xbda20552	-0.07911171
57	0xbd6dc681	-0.058050636
58	0xbdda79b1	-0.10667742
59	0x3d15cf7c	0.036574826
60	0xbe35b67c	-0.17745394
61	0xbdbf1845	-0.09330801
62	0xbd822b09	-0.063558646
63	0xbd44e49e	-0.04806959

squeezenet/fire2/squeeze1x1/BiasAdd/ReadVariableOp f4 [16]
0	0x3da596fb	0.08085438
1	0x3d7565ca	0.059911527
2	0x3d807717	0.062727146
3	0x3d96d384	0.07364562
4	0xbd34fbfe	-0.04418563
5	0x3d3a2edf	0.045454856
6	0x3d6fd2ac	0.05855052
7	0x3d922e0a	0.071376875
8	0x3d15f2d6	0.03660854
9	0x3d2965dc	0.041356906
10	0x3bbb78d5	0.0057211914
11	0x3c49a530	0.01230745
12	0xbcba84e6	-0.022768449
13	0x3d025abf	0.031824823
14	0x3d5e61d7	0.054292526
15	0x3caf7ffc	0.021423332

squeezenet/fire2/expand3x3/BiasAdd/ReadVariableOp f4 [64]
0	0xbd16418b	-0.0366836
1	0xbd85cb56	-0.06532924
2	0x3bcf1ca6	0.006320554
3	0xbca0a0a6	-0.019607853
4	0x3dab05e9	0.08350737
5	0xbdcf0b4c	-0.101095766
6	0xbc8fcf97	-0.017555041
7	0xbce0a088	-0.027420297
8	0xbdf0af3e	-0.11752175
9	0xbd0ed042	-0.03486658
10	0xbcfe10fa	-0.031013954
11	0xbbd2b72c	-0.006430527
12	0x3df7dfee	0.12103258
13	0x3d83e645	0.06440405
14	0xbd36312b	-0.044480484
15	0xbd1d10ba	-0.03834603
16	0x3de2b9ea	0.110706165
17	0x3d115619	0.0354825
18	0xbd2a8b86	-0.041636966
19	0xbc31bd93	-0.010848421
20	0xbc2b8e87	-0.010470993
21	0x3da6a883	0.0813761
22	0x3d11b36f	0.03557151
23	0xbd84ab43	-0.06477978
24	0x3caa1a6c	0.020764552
25	0xbda6fe3d	-0.08153961
26	0xbd14a70c	-0.03629212
27	0x3c916ba2	0.017751519
28	0xbd2c0f38	-0.0420067
29	0x3cd38b3c	0.025823228
30	0xbd1096bf	-0.035300013
31	0xbd932ff6	-0.07186882
32	0x3dd38790	0.10328591
33	0xbd289ed5	-0.0411671
34	0xbdd1824f	-0.102299325
35	0xbda9405b	-0.08264228
36	0xbbeedd5f	-0.007289573
37	0xbd2099df	-0.039209243
38	0xbe1716b1	-0.1475475
39	0x3d2869b8	0.041116446
40	0x3bbd71f3	0.005781406
41	0x3df111a8	0.11770946
42	0x3c071f45	0.008247201
43	0x3da0792b	0.07835611
44	0xbd93e0ec	-0.07220635
45	0xbda7f77d	-0.082015015
46	0x3dcd173b	0.100141965
47	0x3dca7c2f	0.098869674
48	0x3cd6de05	0.026228914
49	0x3e2a1ef3	0.16613369
50	0xbb67031f	-0.0035249663
51	0xbd2bb640	-0.041921854
52	0xbdce7b05	-0.10082058
53	0x3db9c0d5	0.09069983
54	0xbd98e3af	-0.07465302
55	0x3d4a14fe	0.049336426
56	0xbdcb8182	-0.09936811
57	0xbd3c3f1b	-0.04595862
58	0xbd1dcb67	-0.038524058
59	0x3cbc1afb	0.022962084
60	0x3b5d9fe6	0.003381723
61	0xbba5c35c	-0.005058689
62	0x3d448ee7	0.047987845
63	0x3a329581	0.0006812439

squeezenet/fire2/expand1x1/BiasAdd/ReadVariableOp f4 [64]
0	0x3bf9d11f	0.007623806
1	0xbd89748d	-0.067116834
2	0x3d071ee5	0.032988448
3	0x3d3cd2e8	0.046099573
4	0xbd11044c	-0.03540449
5	0xbe08037f	-0.13282584
6	0xbcdb6031	-0.026779266
7	0x3d463603	0.048391353
8	0xbd3bc60f	-0.04584318
9	0xbdd0f971	-0.10203827
10	0x3a5f1406	0.00085097586
11	0x3acbd6da	0.0015551702
12	0xbd875fa9	-0.066100426
13	0xbdc586fa	-0.09644885
14	0xba5f0048	-0.0008506817
15	0xbe2ed584	-0.17073637
16	0xbc064a09	-0.008196362
17	0xbb6a8536	-0.0035784966
18	0xbd7e0243	-0.062013876
19	0xbd9bc1d3	-0.076053284
20	0xbd4115b2	-0.04713983
21	0xbdec796f	-0.11546599
22	0xbd8cd052	-0.068756714
23	0xbcbeac11	-0.023275407
24	0x3d21f98b	0.039544623
25	0xbd37679e	-0.04477655
26	0x3d3cd021	0.046096925
27	0xbd994d83	-0.07485487
28	0xbde61a16	-0.11235444
29	0xbd363a18	-0.044488996
30	0xbd562b93	-0.05228765
31	0xbce91cc7	-0.028456105
32	0xbe0919ee	-0.13388798
33	0xbd96b31c	-0.07358381
34	0x3c24250e	0.0100186
35	0xbc8deae7	-0.017323924
36	0xbda631e7	-0.08114987
37	0xba70b1a4	-0.0009181744
38	0xbd0d6d60	-0.034528136
39	0xbdf332b0	-0.11874902
40	0xbdbf0c5b	-0.093285285
41	0xbb912307	-0.0044292244
42	0xbe262e98	-0.16228712
43	0xbe04ef63	-0.12981944
44	0xbcb5a448	-0.022173062
45	0xbc88a9c1	-0.016682507
46	0xbd2b57fb	-0.04183195
47	0xbd06b368	-0.03288594
48	0xbc3a4988	-0.01137007
49	0xbd6b3545	-0.05742385
50	0x3d8da9cc	0.06917152
51	0xbd3cb262	-0.046068557
52	0xbc99dd7b	-0.018782368
53	0x3c62cbe7	0.013842559
54	0xbc690506	-0.014222389
55	0xbb5944c4	-0.003315256
56	0xbd7c82c1	-0.061648134
57	0xbd589afb	-0.052882176
58	0x3d9692c3	0.07352211
59	0x3d470ff9	0.048599217
60	0xbd19b3e5	-0.037525076
61	0x39f77b25	0.0004720326
62	0x3c96759a	0.018366624
63	0xbd269899	-0.040672872

squeezenet/conv1/BiasAdd/ReadVariableOp f4 [64]
0	0x3d4c1554	0.049825028
1	0xbd31de62	-0.04342497
2	0xbd824af0	-0.063619494
3	0x3dbeb463	0.0931175
4	0x3cded45d	0.027200872
5	0xbd0de519	-0.034642313
6	0x3d555ca0	0.052090287
7	0x3d0c74bc	0.034291014
8	0x3b5d6762	0.0033783545
9	0x3d9ddef0	0.077085376
10	0x3d298e84	0.04139568
11	0xbd90c614	-0.070690304
12	0xbcd54b45	-0.026036868
13	0x3d116011	0.035492007
14	0x3d03f8bc	0.032219633
15	0x3d71ca6c	0.059030935
16	0xbc91e9cc	-0.017811678
17	0xbd6ba8a4	-0.057533875
18	0x3b04d4da	0.002026847
19	0x3d356993	0.044290137
20	0x3c53e225	0.012932335
21	0xbd505ea8	-0.05087152
22	0x3d99baab	0.07506307
23	0xbdc016ff	-0.09379386
24	0xbc8d6bf5	-0.017263392
25	0x3bd2ec4e	0.006436861
26	0xbe096a2f	-0.13419412
27	0x3d9207bb	0.07130381
28	0xbd99623d	-0.074894406
29	0x3cb9e2c9	0.022691147
30	0xbd787fab	-0.06066863
31	0xbdd9c65c	-0.10633537
32	0x3d0cf04e	0.03440886
33	0xbbc62c4c	-0.006047761
34	0x3d350fdf	0.04420459
35	0xbd35ad9d	-0.044355024
36	0xbdcb680a	-0.09931953
37	0x3e06c4ac	0.13160962
38	0xbce97f70	-0.02850315
39	0x3db6acfc	0.08919713
40	0xbcdba747	-0.026813162
41	0x3e021cd3	0.12706308
42	0x3c76ee71	0.015071497
43	0xbd0d42e4	-0.03448762
44	0x3d94abf8	0.07259363
45	0xbcbb61ac	-0.022873722
46	0xbc4f7f97	-0.012664697
47	0xbc794085	-0.015213137
48	0x3dc312d6	0.09525077
49	0x3d5e9a28	0.054346234
50	0xbd310346	-0.043216012
51	0xbd40f269	-0.04710618
52	0x3d7df4c5	0.06200101
53	0xbd641359	-0.055682514
54	0x3d58714a	0.052842416
55	0xbd92583e	-0.07145737
56	0xbd8449c7	-0.064593844
57	0x3cc2e690	0.023791581
58	0x3d7df062	0.061996825
59	0x3c82886c	0.015934192
60	0x3d5ea66c	0.05435793
61	0xba0fbcaa	-0.000548313
62	0xbd7a95b1	-0.061177913
63	0x3d6f901f	0.058487054

squeezenet/conv10/BiasAdd/ReadVariableOp f4 [10]
0	0x3d85dfc5	0.06536821
1	0x3e192ebb	0.14959233
2	0x3c96a89b	0.018390944
3	0x3e4c18df	0.19931363
4	0x3ce14a66	0.027501296
5	0x3e2d8d39	0.16948403
6	0x3dc447b3	0.09583988
7	0x3daa8b19	0.08327312
8	0x3e89c05b	0.26904568
9	0x3db92bb5	0.090415396

squeezenet/conv1/Conv2D f4 [64, 3, 3, 1]
0	0x3d0ee2d6	0.034884296
1	0xbe6927c1	-0.22769071
2	0xbe6b29d8	-0.22965181
3	0x3e0ac664	0.13552243
4	0x3d422f19	0.047408197
5	0xbd5b0320	-0.053469777
6	0x3d2eebd9	0.04270539
7	0x3d96d514	0.0736486
8	0x3e770f2a	0.24126878
9	0xbd8f918c	-0.07010183
10	0x3db6b834	0.08921853
11	0x3d899850	0.067185044
12	0x3c8f55db	0.017496994
13	0xbcb9062d	-0.022585953
14	0xbd3a8f9a	-0.045547105
15	0xbe06ee66	-0.1317688
16	0xbdca0b16	-0.09865396
17	0xbe328911	-0.17435099
18	0xbd33ebcb	-0.04392604
19	0xbe12991e	-0.14316222
20	0xbe9a52e2	-0.3014136
21	0x3ca68135	0.020325283
22	0xbdfa3695	-0.12217442
23	0xbdd27468	-0.10276109
24	0xbce2f41d	-0.027704293
25	0x3d9fcf9c	0.0780327
26	0xbcd0e230	-0.02549848
27	0x3e775b6b	0.24155967
28	0x3e02a844	0.127595
29	0x3e103f18	0.14086568
30	0xbdc3954a	-0.09549959
31	0xbda44fe5	-0.08023051
32	0xb8b29da0	-8.517061e-05
33	0xbe0585dd	-0.13039346
34	0xbdf02c2b	-0.11727174
35	0xbe13f03b	-0.1444711
36	0xbe4f79ce	-0.20261309
37	0xbec06bf5	-0.37582365
38	0xbe2fcc06	-0.17167673
39	0xbd32b24d	-0.043627072
40	0xbd955e82	-0.072934166
41	0xbe1370f6	-0.1439856
42	0x3df80556	0.12110393
43	0x3cec5638	0.028849706
44	0xbd9629f4	-0.07332221
45	0xbcf68add	-0.030095512
46	0xbe41e600	-0.18935394
47	0xbdd6cc67	-0.104882054
48	0xbd481157	-0.04884466
49	0xbc0452f8	-0.008076422
50	0xbd70fa4d	-0.058832455
51	0xbe82ca49	-0.25544956
52	0x3d4be9a8	0.04978338
53	0x3d1dfba5	0.038570065
54	0x3d274a3c	0.04084228
55	0x3d436746	0.04770591
56	0x3d63c226	0.055605076
57	0xbe29689b	-0.1654381
58	0xbd494b23	-0.04914392
59	0x3c885038	0.016639814
60	0xbec9748e	-0.39346737
61	0xbe638c67	-0.22221528
62	0xbea38119	-0.3193443
63	0xbd47a848	-0.04874447
64	0xbcc4314f	-0.023949293
65	0xbcc72f78	-0.024314627
66	0x3e00d866	0.1258255
67	0x3cdc69b1	0.026905866
68	0xbdfaad00	-0.122400284
69	0x3e07140c	0.13191241
70	0x3d7e45b4	0.062078193
71	0xbca2094a	-0.01977982
72	0x3e0c4f64	0.1370216
73	0x3e081aea	0.13291517
74	0x3dd65c2a	0.10466798
75	0xbdf45e10	-0.119320035
76	0xbe3d7db8	-0.18504989
77	0xbb45b5eb	-0.0030168246
78	0xbcde2616	-0.02711777
79	0xbe3853ec	-0.18000764
80	0x3e0f5ea3	0.14000945
81	0xbe9c8b96	-0.30575246
82	0xbe106dc1	-0.14104368
83	0x3da8bc9c	0.082390994
84	0x3de43223	0.11142375
85	0xbe3c176b	-0.18368308
86	0xbe322ead	-0.17400618
87	0x3e840e2b	0.2579206
88	0x3d063d4f	0.032773312
89	0xbe4b8016	-0.1987308
90	0x3d0e6350	0.03476268
91	0xbdbaaefd	-0.091154076
92	0xbe0df907	-0.13864528
93	0x3da23fa7	0.07922297
94	0x3e28cd45	0.16484554
95	0xbcef84e9	-0.029238181
96	0x3cf8784d	0.030330801
97	0x3d3496f7	0.044089284
98	0xbd73e016	-0.059539877
99	0x3d0df223	0.034654748
100	0x3d3b439d	0.045718778
101	0xbe02524c	-0.12726706
102	0xbe08fb91	-0.13377215
103	0xbd7d740d	-0.061878253
104	0xbe470b15	-0.19437821
105	0xbc69ca6f	-0.014269455
106	0xbe0f6928	-0.14004958
107	0x3d462691	0.048376624
108	0x3dca4d75	0.09878055
109	0xbd92afce	-0.07162438
110	0xbe5f82cb	-0.21827237
111	0xbd7ceaaf	-0.06174725
112	0x3dc5864a	0.09644754
113	0xbde360ed	-0.111024715
114	0xbe074edf	-0.1321368
115	0x3e0298a2	0.12753537
116	0xbd1c9194	-0.03822477
117	0x3e19c3b8	0.15016067
118	0xbdd40004	-0.103515655
119	0x3d37ae56	0.044843994
120	0xbd87512f	-0.066072814
121	0xbe9fc2eb	-0.31203398
122	0xbdae91fb	-0.08523937
123	0x3e3f4620	0.18679094
124	0xbc8cfb5f	-0.017209707
125	0x3dc4af60	0.096037626
126	0x3d744521	0.05963624
127	0x3d1980e2	0.037476428
128	0xb96104d6	-0.00021459474
129	0xbde2478a	-0.11048801
130	0x3e00c145	0.12573726
131	0x3e5d1cc0	0.21592999
132	0xbe2fbf96	-0.17162928
133	0xbde63cd5	-0.112420715
134	0x3df2eb8c	0.11861333
135	0x3dabc7e6	0.08387737
136	0xbde36251	-0.11102737
137	0xbe968641	-0.29399303
138	0xbc28a0ce	-0.010292245
139	0xbed46ba4	-0.41488373
140	0x3d0852e2	0.03328217
141	0xbe95204c	-0.29126203
142	0xbd480cac	-0.04884021
143	0x3e88b144	0.26697743
144	0x3c899980	0.016796827
145	0xbd0b240c	-0.033969924
146	0x3c3ea340	0.0116356015
147	0xbe20eebe	-0.15716073
148	0xbe2970e2	-0.16546968
149	0x3dc922d8	0.09821099
150	0x3e08a612	0.13344601
151	0x3d80f300	0.062963486
152	0x3d376981	0.04477835
153	0xbcb560db	-0.02214091
154	0x3cc95eaf	0.024581281
155	0xbcc17a0c	-0.023617767
156	0xbd9721e2	-0.073795095
157	0x3cd610e6	0.026131105
158	0xbcdd1e3f	-0.026991962
159	0xbe1bc291	-0.1521094
160	0x3d721974	0.059106305
161	0xbd8015db	-0.062541686
162	0x3e3acc17	0.18241917
163	0xbd8d0287	-0.06885248
164	0xbe1a8d4f	-0.15092967
165	0x3d8cc358	0.06873196
166	0xbd3fc43b	-0.046818
167	0xbe862234	-0.2619797
168	0x3db928dd	0.09040997
169	0xbde0bb44	-0.10973218
170	0xbe9e3a18	-0.30903697
171	0x3e45cb96	0.19315943
172	0x3db7f6b1	0.089825995
173	0xbd20b0d6	-0.039231144
174	0x3e097418	0.13423193
175	0x3d0d6c03	0.034526836
176	0xbd01cbac	-0.031688377
177	0xbd75f8d6	-0.06005176
178	0xbd827d25	-0.06371526
179	0xbe0d5b30	-0.13804317
180	0x3d28f660	0.041250587
181	0xbe5122fe	-0.20423505
182	0x3ddd7949	0.10814149
183	0x3b61a44e	0.0034430209
184	0xbe8597a1	-0.26092246
185	0x3e3ffc43	0.18748574
186	0xbb61144f	-0.003434438
187	0xbbe013bc	-0.00683829
188	0x3dca4fed	0.09878526
189	0x3c92093a	0.017826665
190	0xbe0f5af5	-0.13999541
191	0xbdc37c05	-0.09545139
192	0xbe12bbb2	-0.14329413
193	0x3dc621c3	0.09674408
194	0x3e46fe54	0.19432956
195	0x3d0e5441	0.03474832
196	0x3d31e027	0.04342666
197	0x3d51ae98	0.051191896
198	0xbe6b3da3	-0.22972731
199	0xbd639cf1	-0.055569593
200	0x3d4e19db	0.050317626
201	0xbe0dda8b	-0.13852899
202	0x3daf98bb	0.08574053
203	0x3e08476c	0.13308495
204	0xbd27e6ef	-0.04099172
205	0x3db78ddd	0.08962605
206	0xbdd0627c	-0.101750344
207	0xbd143b1b	-0.03618918
208	0xbc9731cc	-0.018456362
209	0xbd0bf0eb	-0.034165304
210	0x3d266bc3	0.040630113
211	0x3e093cdc	0.13402122
212	0x3c1e509f	0.009662776
213	0x3b6e07cf	0.0036320572
214	0xbd605a84	-0.054773822
215	0x3cb64fd8	0.02225487
216	0xbd184c95	-0.03718241
217	0xbe380186	-0.17969331
218	0xbc93e315	-0.018052617
219	0xbcb7a2a0	-0.022416413
220	0xbda76d22	-0.08175112
221	0xbd522dfb	-0.05131338
222	0x3dbd17ec	0.09233078
223	0x3e0c41d7	0.13696991
224	0x3e0f6372	0.14002779
225	0xbe03c263	-0.12867121
226	0x3dceecfb	0.10103794
227	0x3d817e9e	0.063229784
228	0x3cdc6c44	0.026907094
229	0x3e35a844	0.1773997
230	0x3dde008b	0.10839947
231	0xbbc5e56a	-0.006039311
232	0x3da90fd0	0.08254969
233	0xbe005316	-0.12531695
234	0xbe0a7d2e	-0.13524315
235	0x3c7189c6	0.01474232
236	0x3d81bea5	0.06335191
237	0xbe014d78	-0.12627208
238	0xbd6a55ec	-0.057210848
239	0xbc2d68df	-0.010584085
240	0x3da20975	0.0791196
241	0xbc620e86	-0.013797408
242	0x3c635125	0.013874327
243	0x3dcbf512	0.09958853
244	0xbd91733d	-0.07102058
245	0xbdadf8f5	-0.084947504
246	0x3e217dda	0.15770665
247	0x3c87b4ce	0.016565707
248	0xbe6e85cb	-0.23293225
249	0x3dddf9a5	0.108386315
250	0x3e09a75f	0.13442753
251	0xbda78a2f	-0.08180653
252	0x3d7643c2	0.060123213
253	0xbd633d1a	-0.055478193
254	0x3d8f3866	0.06993179
255	0x3cfd3b56	0.030912083

squeezenet/fire2/squeeze1x1/Conv2D f4 [16, 1, 1, 64]
0	0xbe873a35	-0.26411596
1	0x3e4fed6d	0.20305414
2	0xbd7693cc	-0.060199544
3	0xbccefe9f	-0.025267897
4	0xbea79ea2	-0.32738215
5	0xbdf93117	-0.12167566
6	0x3ea0827d	0.31349555
7	0xbe4cccde	-0.20000026
8	0x3e59c1e1	0.21265365
9	0x3dc46202	0.09589006
10	0x3e4fcaa2	0.20292142
11	0xbd79e092	-0.061005183
12	0x3e61f5a3	0.22066359
13	0xbe9f722b	-0.3114179
14	0x3de8942a	0.11356385
15	0xbdaf4cb9	-0.085595556
16	0xbe590f3d	-0.21197219
17	0x3d3b0911	0.045662943
18	0xbe4a9e32	-0.19786909
19	0x3e310c96	0.17289957
20	0xbe05c532	-0.13063505
21	0xbe0bfe5b	-0.13671248
22	0xbe776dad	-0.24162932
23	0x3e5c8ce3	0.21538119
24	0xbe651d33	-0.2237442
25	0xbe2ccf0c	-0.16875857
26	0xbe083a05	-0.13303383
27	0x3e1ab5ae	0.15108368
28	0xbe4ac558	-0.19801843
29	0x3e4c8553	0.19972734
30	0x3e0d4895	0.13797219
31	0xbe511a00	-0.20420074
32	0x3e2d0d2d	0.16899557
33	0x3e644fab	0.22296016
34	0xbe2265e4	-0.1585918
35	0xbd62f3d8	-0.05540833
36	0x3e3132b1	0.17304493
37	0x3e2e8c6b	0.17045753
38	0x3e04c6f5	0.12966521
39	0xbdd779a9	-0.10521252
40	0x3dea44b8	0.11438888
41	0xbec09e73	-0.37620887
42	0x3d5845dd	0.052801
43	0xbe503f3a	-0.20336619
44	0xbe16632c	-0.14686269
45	0x3b85e380	0.004085958
46	0x3d909884	0.0706034
47	0xbd00b108	-0.03141883
48	0x3ddf641e	0.10907768
49	0x3d499c78	0.049221486
50	0x3d724072	0.05914349
51	0xbdbabe61	-0.09118343
52	0x3e850d3c	0.2598666
53	0xbd91e7e7	-0.0712431
54	0xbe7c9917	-0.24667774
55	0x3e226735	0.15859683
56	0x3d7d3856	0.061821304
57	0x3d7b7456	0.061390243
58	0xbe1af66a	-0.15133062
59	0xbd37c5f1	-0.044866506
60	0xbe44734a	-0.19184604
61	0x3c1c41dd	0.009537187
62	0x3e84ddbf	0.2595043
63	0x3e60e1f9	0.21961202
64	0xbeafbe45	-0.34324852
65	0x3e518309	0.20460142
66	0xbd162113	-0.036652636
67	0xbd16c5f4	-0.036809877
68	0xbd81d365	-0.063391484
69	0xbe643294	-0.22284919
70	0xbe0ffdb0	-0.14061618
71	0x3eac6ab9	0.33675173
72	0xbeacb4f9	-0.3373182
73	0xbeaef072	-0.3416782
74	0x3db6c473	0.089241885
75	0x3e89c4e7	0.26908037
76	0xbd1da933	-0.03849144
77	0x3ce3e2f6	0.027818184
78	0xbe54f12d	-0.20795126
79	0x3ddbd8f1	0.10734738
80	0xbf167808	-0.58776903
81	0xbcf37875	-0.029720524
82	0x3ec72067	0.3889191
83	0x3e01e96c	0.126867
84	0xbe8c6c5c	-0.27426422
85	0xbe3a8128	-0.18213332
86	0x3d1a5129	0.037675057
87	0x3dcc3090	0.099702
88	0xbd43a119	-0.047761057
89	0x3e844026	0.2583019
90	0x3ce87fed	0.028381312
91	0x3e0616ed	0.13094683
92	0x3d0e41f1	0.034730855
93	0x3dad29f4	0.084552675
94	0x3db34e1b	0.08755132
95	0x3d7239ea	0.059137262
96	0xbe055a13	-0.13022642
97	0xbd810cad	-0.06301246
98	0x3e9d2ef8	0.30699897
99	0xbe6949e0	-0.22782087
100	0x3e62c42f	0.2214515
101	0xbdb12f5d	-0.08651612
102	0x3bc4092a	0.0059825378
103	0x3d66120d	0.05616956
104	0xbeac37fb	-0.3363646
105	0xbe02ecca	-0.1278564
106	0xbe1a34f0	-0.15059257
107	0x3ca255af	0.019816248
108	0xbd443de0	-0.04791057
109	0x3e2ccd0d	0.16875096
110	0xbd492c73	-0.049114656
111	0xbe4b7a63	-0.19870906
112	0xbd9a2530	-0.07526624
113	0x3d52942b	0.051410835
114	0x3daba49a	0.08381005
115	0xbdce2c6c	-0.100670666
116	0xbee5a25d	-0.44850436
117	0xbbbffdcd	-0.005859113
118	0xbe3e7585	-0.18599518
119	0x3ddbf07c	0.10739228
120	0x3e5d1055	0.21588261
121	0xbe3e32e0	-0.18574095
122	0xbe20ccc8	-0.15703118
123	0x3e1ead3a	0.15495768
124	0x3e285780	0.16439629
125	0xbdb841be	-0.08996914
126	0x3da70543	0.081553005
127	0xbec8fe80	-0.39256668
128	0xbef147fb	-0.4712523
129	0x3d217d32	0.039426036
130	0xbd4395d1	-0.047750298
131	0x3b9420ea	0.004520525
132	0xbdd00712	-0.101575986
133	0xbe5b521c	-0.21418041
134	0x3e75d28e	0.24006101
135	0x3c8f8f92	0.017524514
136	0x3e10a250	0.14124417
137	0x3d83c2bc	0.06433627
138	0xbea74536	-0.3266999
139	0x3b6b9a58	0.003595015
140	0xbe9bffd3	-0.30468616
141	0x3df212ec	0.11820015
142	0xbde34d23	-0.11098697
143	0xbeac5597	-0.3365905
144	0x3eab9cf6	0.3351819
145	0x3e345f4c	0.17614478
146	0xbe2be238	-0.16785514
147	0xbd62ac63	-0.055340182
148	0x3dafb4ce	0.08579408
149	0xbd3ffd84	-0.04687263
150	0xbe9b2348	-0.30300355
151	0xbe7f2795	-0.24917443
152	0x3dc3152e	0.09525524
153	0xbe0d663c	-0.1380853
154	0x3ea19291	0.31557134
155	0xbebf39b0	-0.373487
156	0x3ed648c2	0.41852385
157	0x3d182d2e	0.03715246
158	0xbeb5057b	-0.35355744
159	0xbd6970ca	-0.05699233
160	0x3df23ecb	0.11828383
161	0x3d5b106c	0.053482458
162	0xbebb7469	-0.3661225
163	0x3c6b5bd1	0.014365152
164	0x3de122d3	0.1099297
165	0x3d718f73	0.058974694
166	0xbe60fa03	-0.21970372
167	0xbe703f1c	-0.23461574
168	0x3d9d0292	0.07666506
169	0xbeaebde0	-0.34129238
170	0xbeccec13	-0.4002386
171	0x3df43d7c	0.1192579
172	0x3e1e600d	0.15466328
173	0x3c3eab76	0.011637559
174	0xbce5368b	-0.02798011
175	0x3d4a729b	0.049425703
176	0xbdf7831b	-0.12085553
177	0x3d61b649	0.05510548
178	0x3e4adcf6	0.19810852
179	0x3e35536e	0.17707607
180	0x3ecbaff6	0.39782685
181	0xbe327a30	-0.17429423
182	0x3e818f45	0.25304618
183	0xbd289b22	-0.04116357
184	0x3bd63d85	0.0065380954
185	0xbdeeaa75	-0.11653606
186	0xbe0c7486	-0.13716325
187	0xbc08d395	-0.008351226
188	0xbd45307e	-0.04814195
189	0xbec55899	-0.38544157
190	0xbe97c5c6	-0.29643077
191	0x3e78c09c	0.24292225
192	0xbd403e4d	-0.046934415
193	0x3e32b5a5	0.17452104
194	0xbe6fc82b	-0.23416202
195	0xbe801f5e	-0.2502393
196	0xbd905453	-0.070473336
197	0x3daa0e83	0.08303549
198	0xbe7920f1	-0.24328972
199	0xbd23ff4c	-0.040038392
200	0xbe6cd3c6	-0.2312766
201	0xbe926563	-0.28592977
202	0xbe443bee	-0.19163486
203	0xbe03b085	-0.12860306
204	0x3da22608	0.0791741
205	0x3df00b55	0.117209114
206	0xbdbe908d	-0.093049146
207	0x3e72fdf5	0.2372969
208	0x3e86ad6f	0.26304194
209	0xbd7d6a84	-0.06186916
210	0xbcd175a3	-0.025568789
211	0xbdfd2356	-0.123602554
212	0x3e82ee31	0.2557235
213	0x3e2927cb	0.16519086
214	0x3d8d10b7	0.06887954
215	0xbe3f686f	-0.18692182
216	0x3e2e7abb	0.17039005
217	0xbdcdb5bd	-0.100444295
218	0x3e634980	0.22196007
219	0xbe3bd870	-0.18344283
220	0x3dfb3230	0.12265432
221	0xbe09fab6	-0.13474545
222	0x3cf50e83	0.029914146
223	0xbf03217b	-0.5122296
224	0xbdee8987	-0.11647325
225	0x3e3856e8	0.18001902
226	0x3d9fece8	0.07808858
227	0xbd412c2b	-0.047161262
228	0x3db93e5f	0.090450995
229	0xbe83fff9	-0.2578123
230	0xbc83a6c6	-0.016070735
231	0xbe8b39b8	-0.27192473
232	0xbe0f5278	-0.13996303
233	0x3e591759	0.21200313
234	0xbe24b35c	-0.16084045
235	0xbe234be9	-0.15946926
236	0xbe804386	-0.25051516
237	0x3d283c9b	0.041073423
238	0xbe13b868	-0.14425814
239	0xbea53e81	-0.3227425
240	0x3cb23e7a	0.021758307
241	0xbb04ca37	-0.002026213
242	0xbe35975e	-0.17733523
243	0x3eb4c184	0.3530389
244	0x3d9070f7	0.07052796
245	0x3e04e4ca	0.12977901
246	0x3dd6ec97	0.10494345
247	0x3d92d99f	0.07170414
248	0x3dcb3231	0.099216826
249	0x3e24cd69	0.16093983
250	0xbe0d8229	-0.13819183
251	0x3e984816	0.29742497
252	0xbe8e8470	-0.27835417
253	0x3c3c6fb8	0.011501245
254	0x3d76d793	0.06026418
255	0xbea46233	-0.3210617

squeezenet/fire2/expand1x1/Conv2D f4 [64, 1, 1, 16]
0	0xbd7da4d0	-0.061924756
1	0x3e2de172	0.16980532
2	0xbec705b7	-0.38871548
3	0xbdd6cfd2	-0.10488857
4	0x3de9afb9	0.114104696
5	0xbdcf32c0	-0.10117102
6	0xbd8b990c	-0.06816301
7	0x3e58e5fd	0.21181484
8	0xbe5cd5ea	-0.21565977
9	0xbe1b77ca	-0.15182415
10	0xbce4862d	-0.027896011
11	0xbd8c4b7f	-0.06850337
12	0xbe64bb26	-0.22337016
13	0x3ebf6d3c	0.37388027
14	0xbec49297	-0.3839309
15	0x3d29020c	0.041261718
16	0xbebdbc23	-0.370576
17	0xbdce300f	-0.1006776
18	0x3d8a7e8a	0.06762417
19	0xbe4e4a6b	-0.20145576
20	0xbe0159e8	-0.12631953
21	0xbd5836d9	-0.05278668
22	0x39e6cbcd	0.00044020862
23	0x3d98ddc3	0.07464173
24	0xbeab98ea	-0.33515102
25	0x3e1b96b6	0.1519421
26	0xbdf3876d	-0.11891065
27	0xbd9aceb6	-0.07558958
28	0x3dff573c	0.124678105
29	0xbdb634bd	-0.08896778
30	0xbdadd81d	-0.08488486
31	0x3ca85fa2	0.020553414
32	0xbea4ab5c	-0.32161987
33	0x3e5e8dd7	0.21733795
34	0x3e083614	0.13301879
35	0x3e2681f4	0.1626051
36	0xbe11b6cc	-0.14229888
37	0xbed73368	-0.42031407
38	0xbee7345c	-0.45157135
39	0x3d3542bc	0.044253096
40	0x3ea35dd3	0.3190752
41	0x3d1e8f51	0.038710896
42	0x3b939096	0.00450332
43	0xbeafd942	-0.34345442
44	0xbe56eef8	-0.20989597
45	0x3ed480f2	0.41504627
46	0xbd6a31c1	-0.057176355
47	0xbe9265fa	-0.28593427
48	0xbd50c408	-0.0509682
49	0x3d312a7e	0.043253414
50	0xbdd11c6b	-0.102104984
51	0x3e42ac81	0.19011118
52	0x3e0f4ed9	0.13994922
53	0xbd9065a3	-0.07050636
54	0xbec4c71e	-0.38433164
55	0xbd8271f3	-0.0636939
56	0xbe344b05	-0.17606743
57	0x3c6fa232	0.014626073
58	0x3ddcd870	0.1078347
59	0xbe949141	-0.2901707
60	0xbe591ca8	-0.21202338
61	0xbe3f79a2	-0.18698743
62	0xbd7c11f8	-0.061540574
63	0xbedeb692	-0.43498665
64	0x3d2e3811	0.042533938
65	0x3d3bccd0	0.04584962
66	0xbe6686ee	-0.22512409
67	0x3dcccef6	0.10000412
68	0x3e328c2b	0.17436282
69	0x3d826240	0.06366396
70	0xbe02dc0c	-0.12779254
71	0xbc6354a1	-0.013875158
72	0xbd18898b	-0.037240546
73	0x3e4327c8	0.19058144
74	0x3d9d8c3e	0.07692765
75	0xbdafbaff	-0.085805885
76	0xbe8c1723	-0.27361402
77	0x3e8d06b3	0.27544174
78	0xbdebd4b8	-0.11515182
79	0x3e5a5af3	0.21323757
80	0xbe7559f9	-0.23960103
81	0xbd24c503	-0.040226948
82	0x3e16161a	0.14656869
83	0xbe7f4a95	-0.24930795
84	0xbe103780	-0.14083672
85	0xbcc1662d	-0.023608292
86	0x3db1c463	0.08680036
87	0xbcaa9aa1	-0.020825686
88	0x3d9cd9c1	0.07658721
89	0x3e5bf24a	0.21479145
90	0xbc65ddd7	-0.0140299415
91	0xbe4edafb	-0.20200722
92	0x3e0d0213	0.13770323
93	0xbcd4499d	-0.025914008
94	0x3daed17c	0.0853605
95	0x3de60c36	0.11232798
96	0x3d9e5170	0.07730377
97	0xbdadc534	-0.08484879
98	0x3e5e0962	0.21683267
99	0x3e9c208c	0.3049358
100	0xbe0238e6	-0.12717018
101	0x3ec05d81	0.37571338
102	0x3e9c207a	0.30493528
103	0xbe4ce4d0	-0.2000916
104	0xbe81bc27	-0.2533886
105	0x3d8c8c94	0.06862751
106	0x3df5ccc3	0.12001946
107	0xbe3658ee	-0.17807361
108	0x3e863ac4	0.2621671
109	0x3d1a45cf	0.03766423
110	0xbe4931ba	-0.19647875
111	0xbec2052a	-0.37894565
112	0xbe0f4c77	-0.13994013
113	0xbe1f8703	-0.15578847
114	0x3d976e57	0.073940925
115	0xbea9c868	-0.3316071
116	0xbd0d0085	-0.034424324
117	0x3e724d58	0.23662317
118	0xbe83f857	-0.25775406
119	0xbeb3f167	-0.35145113
120	0xbe82995b	-0.25507626
121	0x3d5f4ae6	0.054514788
122	0x3e25ff73	0.16210727
123	0xbe2bd86d	-0.16781779
124	0x3d77f7cc	0.060539052
125	0x3e0eabd0	0.13932729
126	0x3d2c6ac1	0.042093996
127	0xbe46ec9f	-0.19426201
128	0x3de14230	0.109989524
129	0xbe14d526	-0.14534435
130	0x3e1ba4da	0.15199605
131	0xbc0a125f	-0.008427232
132	0xbe27188a	-0.16317955
133	0xbc2c66c8	-0.010522552
134	0x3e0eef08	0.1395837
135	0xbe3c5969	-0.18393482
136	0x3eb56ce9	0.35434654
137	0x3e035a14	0.12827331
138	0x3e037971	0.12839295
139	0xbe1a26d0	-0.15053868
140	0xbdf41436	-0.119179174
141	0xbe1c92fb	-0.15290444
142	0x3d3f1f64	0.046660796
143	0xbed3e00b	-0.4138187
144	0x3e25b42c	0.16182011
145	0xbd354da6	-0.044263504
146	0xbea75875	-0.32684675
147	0xbe4b9041	-0.19879247
148	0x3dd0a0bc	0.10186908
149	0x3e15952f	0.1460769
150	0x3b9b7247	0.0047438475
151	0x3e69bb35	0.2282532
152	0x3e85c685	0.2612802
153	0x3de23cec	0.11046776
154	0x3d95b865	0.07310561
155	0x3debb2f6	0.115087435
156	0xbe8cfbed	-0.27535954
157	0xbe54d522	-0.20784429
158	0xbeb12c64	-0.3460418
159	0x3e4978de	0.19675013
160	0xbdb0044d	-0.0859457
161	0x3d82e361	0.06391025
162	0xbe7dadbc	-0.24773306
163	0xbe639cf2	-0.22227839
164	0xbc0d0a89	-0.008608469
165	0x3e3b217b	0.1827449
166	0x3e0c1a32	0.13681868
167	0xbe3683df	-0.17823742
168	0x3e5dc616	0.21657595
169	0xbd3f2c86	-0.04667332
170	0x3d92f82c	0.07176241
171	0x3e3758f6	0.1790503
172	0xbda80abd	-0.08205173
173	0x3e5521a8	0.2081362
174	0xbeb740e1	-0.35791686
175	0xbe312d72	-0.17302492
176	0xbe9d009b	-0.30664524
177	0xbe59013d	-0.21191879
178	0xbc9bf596	-0.019038003
179	0xb9e7e494	-0.00044230057
180	0xbe516d9e	-0.20451972
181	0xbd843e25	-0.06457166
182	0x3c8384ca	0.01605453
183	0xbdffd717	-0.12492197
184	0xbddc633d	-0.10761116
185	0xbe3491fa	-0.1763381
186	0xbe77c121	-0.24194767
187	0x3d8d2719	0.06892223
188	0xbd930e45	-0.07180456
189	0xbe6f0d90	-0.23345017
190	0xbe8e3c26	-0.27780265
191	0x3eb360c4	0.35034764
192	0x3e26f68e	0.1630499
193	0x3d4e6f04	0.05039884
194	0x3d91e8b6	0.07124464
195	0x3cb95944	0.022625573
196	0xbd4f58b0	-0.05062169
197	0xbe519fcb	-0.20471112
198	0xbd9332c3	-0.071874164
199	0xbb111137	-0.0022135505
200	0xbe94bd42	-0.29050642
201	0x3e2fa615	0.17153199
202	0x3e12a980	0.14322472
203	0xbcdbc3f7	-0.026826842
204	0x3e90c557	0.28275558
205	0x3d02232e	0.03177183
206	0xbe0cea11	-0.13761164
207	0xbdbe5a62	-0.09294583
208	0x3e924843	0.28570756
209	0x3e5eb4f6	0.21748719
210	0x3dbf9d39	0.0935616
211	0x3d13a052	0.036041565
212	0x3e066047	0.13122664
213	0x3eacd82d	0.3375868
214	0x3e72f9e1	0.23728134
215	0x3e92e3f2	0.28689533
216	0xbe46d87a	-0.19418517
217	0x3c21ead1	0.009882645
218	0x3e83f695	0.25774065
219	0xbebcdbcc	-0.36886442
220	0xbda7eda2	-0.08199622
221	0x3e1a9626	0.1509634
222	0x3e57a65b	0.21059553
223	0x3dcb7dd2	0.09936108
224	0xbe34d88a	-0.17660728
225	0xbe29e7a6	-0.16592273
226	0x3dc7fd91	0.09765161
227	0x3d95d5ce	0.07316171
228	0xbc950fb4	-0.018195964
229	0x3e8bcdae	0.2730536
230	0x3ebbb8bc	0.3666438
231	0xbdae0e3f	-0.08498811
232	0x3dc598f2	0.09648313
233	0xbe2bb5d9	-0.16768588
234	0x3e7b2f6a	0.24529806
235	0x3d68d61d	0.05684482
236	0x3e8fc2b0	0.28078222
237	0xbed233bb	-0.41055092
238	0x3e1377c1	0.14401151
239	0xbe8c1ac4	-0.2736417
240	0x3dd2d3e3	0.102943204
241	0xbebb24ee	-0.36551613
242	0xbce8c0b1	-0.028412195
243	0x3d84b33a	0.06479497
244	0xbd18cd01	-0.037304882
245	0x3d37de1c	0.044889554
246	0xbdc3bc74	-0.09557429
247	0xbd8b0442	-0.067879215
248	0xbe9246ac	-0.28569543
249	0xbe9d3239	-0.3070238
250	0x3e782aae	0.24235031
251	0xbb7b90fd	-0.003838598
252	0x3c51b0b2	0.012798475
253	0x3e1e2014	0.15441924
254	0xbd8fda3e	-0.07024048
255	0xbc428437	-0.011872343
