Raspberry files/Results/model45.tflite (tflite, 496992 bytes, 28 tensors)

squeezenet/fire5/squeeze1x1/BiasAdd/ReadVariableOp f4 [32]
-0.010846876 0.014778242 0.028893542 -0.024472615 -0.015285883 0.039764725 -0.004190391 0.044204462
-0.015073201 -0.02580048 0.018800946 0.034874756 -0.02059155 -0.035578992 0.012423169 0.026378673
-0.0017798021 0.028668648 0.011878006 0.020568889 0.010121745 0.027902372 0.042947117 0.013800268
0.05912738 0.008190599 0.031960946 0.055391807 0.026337143 0.021543687 0.057772987 -0.009432588
00000000: 18b7 31bc 7120 723c 26b2 ec3c cb7a c8bc
00000010: a471 7abc 56e0 223d 8c4f 89bb bd0f 353d
00000020: 96f5 76bc 875b d3bc 7104 9a3c d5d8 0e3d
00000030: 9caf a8bc 47bb 11bd 8c8a 4b3c 1618 d83c
00000040: 4048 e9ba 83da ea3c f89b 423c 1680 a83c
00000050: add5 253c 8493 e43c 51e9 2f3d 851a 623c
00000060: 8d2f 723d dd31 063c 7be9 023d 85e2 623d
00000070: fec0 d73c 637c b03c 5ea3 6c3d 248b 1abc

squeezenet/fire5/expand3x3/BiasAdd/ReadVariableOp f4 [128]
-0.01073197 0.0014887602 0.014724275 0.060437955 0.016436191 -0.038864743 -0.028208103 0.0134060215
-0.016254729 0.040959034 0.044099245 0.011699811 0.03718536 0.016175855 0.0035819605 0.02569158
-0.04188594 0.01564549 -2.8312279e-05 -0.029151639 0.02177216 -0.05191892 0.03165271 0.033498228
0.018874487 -0.0010317101 0.0073265377 -0.040477544 0.034460116 -0.03246911 0.008407864 0.00925954
0.012910624 -0.0029812763 -0.038443744 -0.00826179 0.009597775 0.012580907 0.01637235 -0.022186147
0.059805043 -0.025180295 0.032463815 0.025585527 0.029316003 0.01573764 0.0107568335 0.016146772
0.006203746 0.039987832 0.026710719 0.0034265458 -0.004117556 0.029731032 0.0070149763 0.043993574
0.034226704 -0.008299409 -0.023306604 -0.0044348924 -0.023064835 -0.0033979104 -0.010044413 -0.012119488
0.010629899 -0.017443275 0.035100583 0.05746838 0.055876236 0.015411952 0.0063172113 -0.01702011
-0.010535231 0.030392557 -0.025471155 0.04053877 -0.00075553934 -0.016982602 -0.054041624 -0.011577903
0.0068107178 0.01452509 -0.030135281 -0.005308173 0.0053099915 -0.019859403 0.0029954636 0.0015749726
0.008934913 -0.02338839 -0.05271567 -0.0027243304 0.028150074 0.033624656 0.047267303 -0.026687581
0.039976474 0.042277224 -0.011107309 0.0154967 0.044856366 -0.03257043 -0.011425471 -0.009524672
0.03542034 -0.0026685453 0.0047191437 0.051940564 -0.010281828 -0.030194256 -0.0042734453 0.0067556216
-0.01813031 0.020709457 -0.025309402 0.012759453 0.009711563 -0.02843088 -0.014760231 -0.009833007
0.029898515 -0.03914135 0.021610452 -0.014415916 0.051255118 -0.010951852 -0.034802504 0.00989043
00000000: 25d5 2fbc 8122 c33a 163e 713c ca8d 773d
00000010: 31a5 863c a330 1fbd ae14 e7bc eea4 5b3c
00000020: a328 85bc a9c4 273d 69a1 343d 90b0 3f3c
00000030: ad4f 183d 3a83 843c 53bf 6a3b 2677 d23c
00000040: 9790 2bbd f82a 803c 2880 edb7 6bcf eebc
00000050: 875b b23c efa8 54bd 46a6 013d 7035 093d
00000060: ab9e 9a3c 723a 87ba 7413 f03b c8cb 25bd
00000070: 0d26 0d3d 54fe 04bd 23c1 093c 53b5 173c
00000080: 1587 533c 8461 43bb 3077 1dbd 755c 07bc
00000090: fc3f 1d3c 2620 4e3c 4e1f 863c b9bf b5bc
000000a0: 22f6 743d e846 cebc c7f8 043d bd98 d13c
000000b0: 1d28 f03c 39ec 803c 6e3d 303c 3c46 843c
000000c0: cb48 cb3b 48ca 233d 70d0 da3c e68f 603b
000000d0: 90ec 86bb 7e8e f33c e3dd e53b 9b32 343d
000000e0: 4d31 0c3d 3ffa 07bc 7eed bebc 9352 91bb
000000f0: 77f2 bcbc 7aaf 5ebb 5291 24bc d190 46bc
00000100: 0729 2e3c 33e5 8ebc a1c5 0f3d f763 6b3d
00000110: 7bde 643d 6982 7c3c 9c00 cf3b c26d 8bbc
00000120: f69b 2cbc d0f9 f83c e2a8 d0bc fb0b 263d
00000130: 630f 46ba 191f 8bbc c05a 5dbd 3fb1 3dbc
00000140: 712c df3b a5fa 6d3c 44de f6bc 2ff0 adbb
00000150: 70ff ad3b 30b0 a2bc 8a4f 443b 506f ce3a
00000160: be63 123c 0299 bfbc 63ec 57bd ae8a 32bb
00000170: fc9a e63c 02ba 093d 5c9b 413d ea9f dabc
00000180: 5fbe 233d e22a 2d3d 6efb 35bc dfe5 7d3c
00000190: 4fbb 373d 9268 05bd e631 3bbc 5f0d 1cbc
000001a0: eb14 113d c3e2 2ebb 0ca3 9a3b a1bf 543d
000001b0: 1d75 28bc f259 f7bc 4208 8cbb 435e dd3b
000001c0: 0486 94bc e1a6 a93c aa55 cfbc 060d 513c
000001d0: 3f1d 1f3c e0e7 e8bc e5d4 71bc 9f1a 21bc
000001e0: bbed f43c ae52 20bd 6708 b13c bc30 6cbc
000001f0: e3f0 513d 666f 33bc 128d 0ebd 780b 223c

squeezenet/fire5/expand1x1/BiasAdd/ReadVariableOp f4 [128]
0.0060855043 -0.022949025 0.020826055 -0.024182398 0.011527682 -0.041173816 -0.019372702 -0.017319202
0.056515943 -0.02616341 0.031300094 0.0023049293 0.03935838 -0.03519376 -0.020665662 -0.04997674
0.04290911 0.02608169 -0.022741519 -0.047739007 0.012289716 -0.052382164 0.022794452 -0.01740375
-0.021802867 0.025380556 -0.008240147 -0.045445643 -0.007919263 0.008420722 0.027002329 0.04917762
0.06906172 -0.032515287 -0.021962026 0.021384396 -0.03822779 0.0017471879 -0.02368396 0.024361279
-0.0017512474 -0.027172001 -0.020339679 0.0043265903 -0.07141435 -0.0104205 0.04110484 0.009559855
0.016268447 -0.028838526 -0.03380448 0.0004846501 0.042311996 0.021297114 0.068102606 0.012158969
0.09326745 0.037242845 -0.06463057 -0.0043956656 -0.0062242956 -0.0049187816 -0.036770653 -0.0042474726
-0.044476926 0.052667268 -0.013429966 0.0202221 0.015790833 0.013289194 0.0042130337 0.018077562
0.01186831 0.0037728278 0.030337919 -0.0017875453 0.07245093 -0.03197482 -0.043639176 -0.016963448
-0.030500945 -0.01161724 0.0032893 -0.008830595 0.017888425 0.026074743 -0.009238942 0.12585415
-0.0012926763 -0.005976475 0.031394135 0.00045372278 0.038414523 -0.011897943 0.016789813 0.026018158
0.032213643 0.02782932 -0.030124944 0.011348365 -0.036963075 -0.019600315 -0.020416731 0.014316362
0.02137977 0.05242561 0.043907125 -0.04327985 -0.045464203 -0.010617691 0.05022994 0.050623987
0.08650955 0.03615537 -0.10879539 0.022884434 0.0034706686 0.0013819138 -0.027499618 0.021256065
0.043712627 0.02848487 -0.0054915184 -0.019597555 0.016496113 -0.01566027 -0.050671555 0.054337326
00000000: e968 c73b 98ff bbbc 679b aa3c 2a1a c6bc
00000010: 9ade 3c3c e0a5 28bd 80b3 9ebc 00e1 8dbc
00000020: 437d 673d a654 d6bc 8734 003d 4c0e 173b
00000030: 4136 213d 5527 10bd 094b a9bc 69b4 4cbd
00000040: 77c1 2f3d 45a9 d53c 6c4c babc fa89 43bd
00000050: ce5a 493c ae8e 56bd 6ebb ba3c 4f92 8ebc
00000060: ed9b b2bc e2ea cf3c ae01 07bc 3625 3abd
00000070: ccbf 01bc 11f7 093c fd33 dd3c 796e 493d
00000080: 3b70 8d3d c02e 05bd b5e9 b3bc 542e af3c
00000090: be94 1cbd e601 e53a dd04 c2bc 4e91 c73c
000000a0: 1d8a e5ba d197 debc 669f a6bc 12c6 8d3b
000000b0: b041 92bd bfba 2abc 8c5d 283d f0a0 1c3c
000000c0: 6845 853c c63e ecbc 9176 0abd a318 fe39
000000d0: 584f 2d3d 4977 ae3c 6179 8b3d 6a36 473c
000000e0: 0103 bf3d f48b 183d 085d 84bd 8409 90bb
000000f0: 2df5 cbbb bb2d a1bb d39c 16bd 622e 8bbb
00000100: 702d 36bd a2b9 573d 5c09 5cbc d1a8 a53c
00000110: c75b 813c ebba 593c 7d0d 8a3b 6517 943c
00000120: 4d73 423c 8c41 773b 3a87 f83c 114c eaba
00000130: 2761 943d 07f8 02bd febe 32bd eef6 8abc
00000140: 1edd f9bc 3c56 3ebc 4c91 573b 33ae 10bc
00000150: bf8a 923c b39a d53c ee5e 17bc e9df 003e
00000160: 056f a9ba 4ed6 c3bb 2397 003d a4e1 ed39
00000170: 8c58 1d3d 97ef 42bc ca8a 893c 0824 d53c
00000180: 74f2 033d 50fa e33c 96c8 f6bc 7eee 393c
00000190: 9866 17bd d790 a0bc fd40 a7bc 2d8f 6a3c
000001a0: a124 af3c 3dbc 563d f5d7 333d 3646 31bd
000001b0: ac38 3abd d3f5 2dbc e9bd 4d3d 195b 4f3d
000001c0: eb2b b13d a717 143d 1ed0 debd 2378 bb3c
000001d0: 2874 633b 5521 b53a e146 e1bc 3321 ae3c
000001e0: 030c 333d 1a59 e93c 32f2 b3bb 0d8b a0bc
000001f0: db22 873c f749 80bc fa8c 4fbd d190 5e3d

squeezenet/fire4/squeeze1x1/BiasAdd/ReadVariableOp f4 [32]
0.016831167 -0.005818243 0.009111644 0.002765129 -0.011516487 -0.0064274855 -0.03368322 0.00033601763
-0.0154249715 0.008272192 -0.007491627 -0.00190604 0.012552486 0.024403749 0.057362515 0.026045304
-0.0060936483 0.029889585 -0.0035784135 0.032343015 -0.009027099 0.030332636 0.047477186 0.010862661
0.01611289 -0.009413932 0.007811807 0.009478698 0.016024023 0.024591336 -0.009814367 -0.0062013334
00000000: 84e1 893c f6a6 bebb 0149 153c 2b37 353b
00000010: a6af 3cbc a89d d2bb 6bf7 09bd 862b b039
00000020: 05b9 7cbc 1788 073c 527c f5bb 17d4 f9ba
00000030: f1a8 4d3c 5fea c73c f5f4 6a3d f65c d53c
00000040: 3aad c7bb 01db f43c d183 6abb 1c7a 043d
00000050: 66e6 13bc 267c f83c 7077 423d 4df9 313c
00000060: 2eff 833c e53c 1abc 30fa ff3b 8a4c 1b3c
00000070: d044 833c c573 c93c 70cc 20bc 8e34 cbbb

squeezenet/fire4/expand3x3/BiasAdd/ReadVariableOp f4 [128]
0.030188682 -0.02521948 -0.023733353 0.008198541 0.010812772 0.006274993 -0.0015748582 -0.02340216
0.09615482 0.018747577 -0.008305918 0.012587355 0.018216902 0.0024208038 -0.013942084 0.047346443
-0.011870245 0.033507463 0.001931561 0.005648614 -0.007928436 0.005648607 0.025205977 0.004189659
0.042441234 -0.0012028356 0.0043776347 0.018370263 0.020097064 -0.002013223 -0.012993023 0.029783713
-0.016119111 0.032437384 0.01902388 -0.0065715224 0.015160997 0.048744913 -0.02439569 -0.026310578
-0.026143825 0.009198031 0.02521574 0.026340457 -0.0046645557 0.018918525 0.036289327 0.008862432
0.03722409 0.012705473 0.027384847 0.012620664 0.03427563 0.026437253 0.018621089 0.035523016
0.055758934 0.007412589 0.004983324 -0.003779924 0.021570135 -0.019430425 -0.005924562 -0.006243215
0.011759684 -0.01812234 0.012499042 0.015233652 -0.017807556 0.0017322794 -0.009866092 -0.00502061
-0.05438125 0.027495088 0.030648595 0.016229313 0.011594161 0.0073831934 0.008816399 0.04678122
0.060397692 -0.004520656 0.022034105 0.03244868 0.0057739867 -0.004520668 0.012633346 0.04239477
0.029432792 0.017131483 0.00887685 -0.0064438186 -0.0027171385 -0.011087104 0.045678306 -0.029272502
0.0050485143 0.02243717 0.04118652 0.032574024 -0.015625866 0.0063613225 0.0022695279 -0.02750156
0.019798622 -0.008436149 -0.032349695 0.07214397 0.020079901 0.044302646 0.028513718 -0.01969336
0.017201243 -0.011668736 0.0287942 0.0041081957 0.020862615 0.052028432 0.013899139 0.055579305
-0.003896758 0.009755745 0.022525491 0.018122759 -0.0020731539 -0.043479566 0.035213612 -0.012809846
00000000: 414e f73c 1599 cebc 736c c2bc 2c53 063c
00000010: 0e28 313c 759e cd3b 796b ceba e3b5 bfbc
00000020: d1ec c43d 8594 993c 8c15 08bc 323b 4e3c
00000030: 9d3b 953c 59a6 1e3b 576d 64bc 58ee 413d
00000040: 6b7b 42bc 1f3f 093d 6f2c fd3a 0218 b93b
00000050: 45e6 01bc f317 b93b c47c ce3c 6849 893b
00000060: dcd6 2d3d 77a8 9dba 4372 8f3b 3c7d 963c
00000070: 99a2 a43c 47f0 03bb b0e0 54bc f9fc f33c
00000080: 3a0c 84bc 10dd 043d f8d7 9b3c ed55 d7bb
00000090: d565 783c bfa8 473d 78d9 c7bc 4889 d7bc
000000a0: 932b d6bc 57b3 163c 3d91 ce3c f1c7 d73c
000000b0: 21d9 98bb 06fb 9a3c 1ea4 143d bc33 113c
000000c0: 4a78 183d 9e2a 503c 3056 e03c e7c6 4e3c
000000d0: 9a64 0c3d f092 d83c 418b 983c 9580 113d
000000e0: 7b63 643d 4ee5 f23b 274b a33b 9ab8 77bb
000000f0: dab3 b03c 8e2c 9fbc d422 c2bb e293 ccbb
00000100: b1ab 403c 4d75 94bc c8c8 4c3c 9196 793c
00000110: 27e1 91bc a70d e33a 64a5 21bc ee83 a4bb
00000120: e0be 5ebd 613d e13c c312 fb3c 56f3 843c
00000130: 70f5 3d3c b7ee f13b a872 103c aa9d 3f3d
00000140: 9263 773d 0322 94bb de80 b43c e8e8 043d
00000150: b633 bd3b 1d22 94bb 18fc 4e3c 23a6 2d3d
00000160: 0a1d f13c 5357 8c3c 3570 113c ab26 d3bb
00000170: 0512 32bb afa6 35bc 2d19 3b3d e3cc efbc
00000180: 026e a53b 28ce b73c 32b3 283d 576c 053d
00000190: d101 80bc a472 d03b 5cbc 143b f44a e1bc
000001a0: b830 a23c c637 0abc 1d81 04bd 38c0 933d
000001b0: 9b7e a43c b176 353d 9a95 e93c f853 a1bc
000001c0: 9fe9 8c3c 3a2e 3fbc d0e1 eb3c 0b9e 863b
000001d0: 13e8 aa3c c41b 553d 37b9 633c 20a7 633d
000001e0: c060 7fbb 8fd6 1f3c 6187 b83c 2e76 943c
000001f0: c0dd 07bb a117 32bd 263c 103d 63e0 51bc

squeezenet/fire4/expand1x1/BiasAdd/ReadVariableOp f4 [128]
0.032997176 0.036031052 0.016516484 -0.000898755 0.027679143 0.03823784 0.002177173 0.0043651233
0.0024604609 0.008612941 0.002503353 0.069004826 -0.0009939605 0.03088367 0.09958129 0.0042232927
0.0066734697 0.011600311 -0.0020191735 0.01196876 0.02262501 -0.013253037 0.010651411 0.012671649
0.04131884 0.05528494 0.010998886 0.0012665361 -0.010843134 -0.013207139 -0.0017565665 0.14513215
-0.016279045 0.027482133 -0.0062428694 0.039095834 -0.0015216026 0.03705832 0.021379448 -0.000162682
-0.032823157 -0.0067641838 0.03237934 -0.032478902 -0.016890572 -0.0031290706 0.00030807772 0.020621782
0.0015373719 0.008522146 0.015155882 0.028149184 0.036960393 0.01352276 0.00884897 -0.06704736
0.0010906941 0.024416082 0.0164451 -0.031466044 -0.03714618 0.021362025 0.066006094 0.060312845
0.1179975 0.06329554 0.058896035 0.02550718 0.015630888 0.013383338 -0.0040261983 -0.00052664103
0.10421377 0.048571955 0.027633628 -0.008646652 0.0010268539 0.004347157 0.0 0.014933056
0.029262278 -0.015726523 0.13167183 0.05252837 -0.0034146763 -0.022340596 -0.026623873 0.020154787
0.00045744464 0.023078304 0.03273632 0.010820813 0.086347215 0.0039361897 0.03625593 0.031928122
0.038231533 0.053810228 0.05823312 0.0060597872 0.026004937 -0.04321106 0.006113552 0.02696575
0.0020831993 -0.033001386 -0.0063188644 0.023780763 0.037958704 -0.01840645 -0.006641575 0.049804453
-0.010952087 -0.015298288 -0.012194894 -0.0132413935 0.06429828 0.024038061 -0.04098691 -0.0049274927
0.04966474 -0.01586892 0.031968124 0.015264555 -0.008642994 0.08525351 0.005591147 0.034172293
00000000: 0c28 073d 4c95 133d 944d 873c 6d9a 6bba
00000010: 5fbf e23c 489f 1c3d e7ae 0e3b 4f09 8f3b
00000020: af3f 213b 4b1d 0d3c 4b0f 243b 6752 8d3d
00000030: c847 82ba c0ff fc3c 46f1 cb3d 8c63 8a3b
00000040: 1fad da3b 3b0f 3e3c 1c54 04bb 9e18 443c
00000050: 1658 b93c 4423 59bc 4183 2e3c c09c 4f3c
00000060: f23d 293d 7672 623d ac34 343c e601 a63a
00000070: 66a7 31bc c262 58bc 973c e6ba 869d 143e
00000080: a25b 85bc 3622 e13c fc90 ccbb f422 203d
00000090: 8370 c7ba 77ca 173d f423 af3c 9e95 2ab9
000000a0: 9371 06bd 16a6 ddbb 33a0 043d 9908 05bd
000000b0: 195e 8abc 1811 4dbb 7e85 a139 03ef a83c
000000c0: a481 c93a 79a0 0b3c 6050 783c 1e99 e63c
000000d0: c863 173d 918e 5d3c 45fb 103c 2050 89bd
000000e0: 9ff5 8e3a 3c04 c83c e0b7 863c 8ae2 00bd
000000f0: 9826 18bd 6aff ae3c 342e 873d 9a0a 773d
00000100: aca8 f13d 18a1 813d f83c 713d 6ff4 d03c
00000110: 590c 803c ca45 5b3c 33ee 83bb 480e 0aba
00000120: 076e d53d 63f3 463d eb5f e23c b0aa 0dbc
00000130: 8097 863a 9972 8e3b 0000 0000 c7a9 743c
00000140: 72b7 ef3c e9d4 80bc fbd4 063e fd27 573d
00000150: c3c8 5fbb a003 b7bc 4f1a dabc a71b a53c
00000160: 2ed5 ef39 b60e bd3c 8516 063d c749 313c
00000170: cfd6 b03d 27fb 803b 1981 143d 10c7 023d
00000180: ab98 1c3d 1d68 5c3d da85 6e3d 2e91 c63b
00000190: 4e08 d53c 15fe 30bd 3154 c83b 47e7 dc3c
000001a0: 4986 083b 762c 07bd 7a0e cfbb e0cf c23c
000001b0: 967a 1b3d 20c9 96bc 92a1 d9bb c1ff 4b3d
000001c0: 6270 33bc aca5 7abc 18cd 47bc 6ef2 58bc
000001d0: d1ae 833d 78eb c43c e4e1 27bd ce76 a1bb
000001e0: 416d 4b3d 8aff 81bc 02f1 023d 2f18 7a3c
000001f0: 589b 0dbc 6499 ae3d f135 b73b 3ff8 0b3d

squeezenet/fire3/squeeze1x1/BiasAdd/ReadVariableOp f4 [16]
0.00908947 0.0079217395 0.041077882 0.0051815254 0.0013225323 0.011189796 0.017339444 0.016834212
0.035404492 -0.011124935 0.011561874 0.024057094 -0.0030723196 0.013169771 0.0257664 0.0018700269
00000000: 00ec 143c 2fca 013c 4841 283d c9c9 a93b
00000010: d258 ad3a 6855 373c 730b 8e3c e7e7 893c
00000020: 4d04 113d 5c45 36bc 046e 3d3c 6213 c53c
00000030: f858 49bb 06c6 573c 0f14 d33c b11b f53a

squeezenet/fire3/expand3x3/BiasAdd/ReadVariableOp f4 [64]
0.02041813 0.008520808 0.010584739 -0.014261457 0.015266143 0.0068506766 -0.0076019787 0.006305907
-0.0075064753 -0.021297317 0.0013707239 -0.0062607205 0.034651034 -0.012756118 0.005935689 -0.018214699
-0.00011680975 -0.02147797 0.0040847487 -0.00062659825 0.010937366 -0.0072803786 -0.006873348 0.010655158
-0.01041129 -0.005962884 0.009261423 0.013597592 -0.023086542 0.0039772294 -0.0008484916 -0.012019711
-0.023190713 0.005043768 0.014374868 -0.0015034095 0.0413942 -0.004189641 0.008220888 -0.011718397
-0.0005566487 -0.0020159243 0.002206416 -0.011051156 0.015975017 -0.035384953 -0.00498244 0.0150321955
0.00019542384 0.021224953 -0.0014932714 0.0037833657 -0.004525817 0.0026162998 -0.0076820576 0.0017040384
-0.005870631 0.0076870397 0.006030502 -0.0064601754 0.008036208 0.014800316 -0.0023157336 0.012219716
00000000: ec43 a73c dc9a 0b3c 9d6b 2d3c e3a8 69bc
00000010: d81e 7a3c a47b e03b 051a f9bb c8a1 ce3b
00000020: e1f8 f5bb b677 aebc dda9 b33a bb26 cdbb
00000030: 3eee 0d3d 09ff 50bc 2b80 c23b fe36 95bc
00000040: c2f7 f4b8 91f2 afbc 5bd9 853b 4c42 24ba
00000050: a332 333c 3e90 eebb d239 e1bb f992 2e3c
00000060: 1e94 2abc 4c64 c3bb 39bd 173c 6fc8 5e3c
00000070: fd1f bdbc 6b53 823b 4f6d 5eba 52ee 44bc
00000080: 73fa bdbc 3146 a53b 9184 6b3c 0d0e c5ba
00000090: f78c 293d 4249 89bb e7b0 063c 85fe 3fbc
000000a0: 10ec 11ba 991d 04bb 8599 103b e80f 35bc
000000b0: 0ade 823c d0ef 10bd bc43 a3bb 9949 763c
000000c0: b0ea 4c39 f4df ad3c e0b9 c3ba 58f2 773b
000000d0: 4e4d 94bb 3a76 2b3b c5b9 fbbb 0a5a df3a
000000e0: 6c5e c0bb 90e3 fb3b 849b c53b e1af d3bb
000000f0: 4daa 033c 067d 723c 90c3 17bb 3435 483c

squeezenet/fire3/expand1x1/BiasAdd/ReadVariableOp f4 [64]
-0.02232382 -0.012933633 0.022338083 0.01987811 0.034027144 0.055626586 0.01553447 0.006602681
0.011713041 0.031839028 -0.016513167 -0.005986497 0.017501697 -0.017565224 0.014984423 0.014740955
-0.018665772 0.021420639 0.033969827 -0.02113834 -0.010432833 0.00019530501 0.020154517 0.041015744
0.012859759 0.01855712 0.010775296 -0.016543472 0.017267123 -0.0011800884 0.032067705 0.0042302976
-0.0047065564 -0.01428952 -0.020082967 -0.0012545299 -0.0074770586 -0.0029403353 -0.015002316 0.014499526
0.043184202 0.024541983 0.011818136 0.013356953 0.0004720603 0.0069675776 0.0066367243 0.04643614
-0.018266277 0.0083377 -0.01176381 -0.00034136535 -0.0072907335 -5.1525654e-05 -0.06890902 0.013654089
-0.017570185 -0.026605587 -0.03995628 0.009593485 -0.05479801 0.008212012 -0.024462497 -0.0116253905
00000000: 72e0 b6bc 97e7 53bc 5bfe b63c 6bd7 a23c
00000010: 0c60 0b3d b4d8 633d 4a84 7e3c 4d5b d83b
00000020: 0ee8 3f3c a469 023d 9f46 87bc 602a c4bb
00000030: b85f 8f3c f2e4 8fbc 3a81 753c 0c84 713c
00000040: f6e8 98bc 567a af3c f223 0b3d 502a adbc
00000050: 79ee 2abc caca 4c39 161b a53c 2000 283d
00000060: bdb1 523c 1a05 983c de8a 303c 2d86 87bc
00000070: c873 8d3c 32ad 9aba 6d59 033d 4f9e 8a3b
00000080: 7539 9abb 971e 6abc 0985 a4bc 0a6f a4ba
00000090: 1d02 f5bb a4b2 40bb 46cc 75bc 6b8f 6d3c
000000a0: ebe1 303d 450c c93c dba0 413c 1fd7 5a3c
000000b0: dc7e f739 4750 e43b e178 d93b d233 3e3d
000000c0: 29a3 95bc d99a 083c ffbc 40bc 48f9 b2b9
000000d0: 1be7 eebb 401d 58b8 2c20 8dbd 66b5 5f3c
000000e0: 59ef 8fbc f6f3 d9bc 32a9 23bd fe2d 1d3c
000000f0: e173 60bd ad8b 063c 9365 c8bc 6c78 3ebc

squeezenet/fire2/squeeze1x1/BiasAdd/ReadVariableOp f4 [16]
0.006868383 0.03362681 0.010343069 -0.0028475188 0.03426358 0.06417873 0.008626086 -0.0049486933
0.015090884 0.027982397 0.025263445 0.04075362 0.013967134 0.0046050465 0.062473584 0.029981028
00000000: 2c10 e13b 44bc 093d fa75 293c 709d 3abb
00000010: f857 0c3d 2370 833d 6d54 0d3c a628 a2bb
00000020: c13f 773c 573b e53c 49f5 ce3c 45ed 263d
00000030: 68d6 643c eee5 963b 4de4 7f3d c69a f53c

squeezenet/fire2/expand3x3/BiasAdd/ReadVariableOp f4 [64]
0.04574535 -0.0041561066 -0.019510172 0.0055975425 -0.0018994707 0.02478222 0.0143767465 0.013269864
0.014140474 0.021758523 0.01995263 0.083931014 0.0017163858 0.018480571 0.017129108 0.017408319
0.031044416 -0.039450333 0.02779672 0.017789293 -0.0014835325 -0.0010654894 -0.021063862 0.006689444
0.023076924 0.05251678 0.0029429249 0.032616008 0.010432086 0.009436722 -0.011764947 0.024337243
0.009177607 0.008799619 0.023472123 0.005170497 0.019250728 0.0051944223 0.024979409 0.01220754
0.017339313 -0.015307309 0.0058378023 0.0071874354 0.010384242 0.011988636 -0.0018613971 0.052972842
0.031164305 0.00947351 0.005048317 0.00902654 0.006589409 0.002122052 0.011087315 0.012429189
-0.008843629 0.029571772 0.020339563 0.008417646 0.013866807 0.04376285 0.012134885 0.006119423
00000000: 7a5f 3b3d f32f 88bb ccd3 9fbc 976b b73b
00000010: a9f7 f8ba 1504 cb3c 728c 6b3c d869 593c
00000020: 72ad 673c ee3e b23c b373 a33c 06e4 ab3d
00000030: 5af8 e03a 9164 973c 5852 8c3c e49b 8e3c
00000040: dc50 fe3c ac96 21bd f2b5 e33c daba 913c
00000050: 1773 c2ba e4a7 8bba 1f8e acbc 2033 db3b
00000060: d10b bd3c d61b 573d 16de 403b 5d98 053d
00000070: 57eb 2a3c 7b9c 1a3c c4c1 40bc e65e c73c
00000080: ac5d 163c 472c 103c 9c48 c03c 466d a93b
00000090: b4b3 9d3c f935 aa3b 9ea1 cc3c 2202 483c
000000a0: 2d0b 8e3c 82cb 7abc 094b bf3b 9484 eb3b
000000b0: ab22 2a3c fc6b 443c 1ffa f3ba 0dfa 583d
000000c0: 494c ff3c c836 1b3c 5a6c a53b 0ee4 133c
000000d0: f8eb d73b 2012 0b3b 92a7 353c cca3 4b3c
000000e0: dee4 10bc 8040 f23c 289f a63c 2bea 093c
000000f0: 9b31 633c ad40 333d 66d1 463c 7185 c83b

squeezenet/fire2/expand1x1/BiasAdd/ReadVariableOp f4 [64]
-0.04174922 -0.009183808 -0.00042291216 0.040163536 -0.0040884274 -0.005167066 0.018124923 0.06476102
0.009653382 0.006579644 0.01797836 0.028813796 0.022500051 0.0027342688 -0.014426122 0.0026936426
0.04807351 -0.0062666396 0.02887514 0.028047169 0.0035765346 0.052308645 0.046850678 0.015296686
-0.009814102 0.02048541 0.0018700091 -0.023205489 0.00011464681 -0.021096457 0.004112183 -0.0015972566
0.021103775 0.01615038 -0.003695434 -0.002479967 0.027640149 0.0032274283 -0.0060966713 0.012052802
-0.00032948537 0.058017 0.010852733 0.02314588 -0.0017259361 0.016422514 0.02065174 0.024888534
0.0014765813 0.003937704 -0.027278442 0.0076130345 0.061153743 -0.011723263 -0.033661854 0.048148658
0.010141642 -0.007955504 0.026830992 0.0066599087 0.094004765 0.019709362 0.0037070399 -0.00031585232
00000000: 3b01 2bbd af77 16bc 4fba ddb9 8582 243d
00000010: 37f8 85bb 7e50 a9bb b87a 943c 6da1 843d
00000020: 3829 1e3c 0e9a d73b 5b47 933c e90a ec3c
00000030: 0752 b83c 6b31 333b 8b5b 6cbc d387 303b
00000040: bbe8 443d 6258 cdbb 8f8b ec3c 2dc3 e53c
00000050: 4b64 6a3b 9741 563d 7fe6 3f3d f49e 7a3c
00000060: 54cb 20bc 05d1 a73c 181b f53a 7019 bebc
00000070: 8a6e f038 7ad2 acbc 7ebf 863b 0a5b d1ba
00000080: d3e1 ac3c cd4d 843c 182f 72bb f186 22bb
00000090: 986d e23c 4383 533b 96c6 c7bb 1e79 453c
000000a0: c7be acb9 3ca3 6d3d a9cf 313c 6e9c bd3c
000000b0: ce38 e2ba 8288 863c d62d a93c 0ae3 cb3c
000000c0: d989 c13a db07 813b 0a77 dfbc c376 f93b
000000d0: 597c 7a3d ee12 40bc 03e1 09bd 8737 453d
000000e0: 2129 263c cd57 02bc abcc db3c 5d3b da3b
000000f0: 9285 c03d 8775 a13c cff1 723b fb98 a5b9

squeezenet/conv1/BiasAdd/ReadVariableOp f4 [64]
0.010862124 -0.00021583514 0.021554988 0.05904685 0.062565185 0.06253398 0.01750384 -0.0014431902
0.014522765 0.0472639 0.0070307273 0.0024684977 -0.0012571313 0.0015808431 0.016829588 0.04112739
-0.0003003874 0.073144816 0.06871712 0.03604384 -0.0006342947 0.013347397 0.027136408 0.05246618
0.019253707 0.04671955 0.020839263 -0.0002715545 0.019148098 0.024630338 0.009941904 -0.002439961
0.02172816 -0.000361205 0.030613434 0.013689161 0.064336814 0.06025952 -0.0008817913 0.061325267
0.017859522 0.01350138 0.06299412 0.026705718 0.007867188 0.0034562927 0.0625849 -0.002451253
0.0080791665 -0.00024466153 0.042349353 0.018551994 -0.025488967 0.016500326 0.015569471 0.03323981
0.009277072 0.03316062 0.012283558 0.044809215 0.0349091 0.0054824096 0.06370697 -0.00045376172
00000000: 0df7 313c ce51 62b9 1694 b03c 1cdb 713d
00000010: 2d22 803d d111 803d 3764 8f3c 6d29 bdba
00000020: e4f0 6d3c cb97 413d 0462 e63b 85c6 213b
00000030: 54c6 a4ba 4b34 cf3a 34de 893c 3275 283d
00000040: 507d 9db9 f3cc 953d 90bb 8c3d b5a2 133d
00000050: cc46 26ba 0aaf 5a3c 2c4d de3c c7e6 563d
00000060: f3b9 9d3c 005d 3f3d 1ab7 aa3c 6e5f 8eb9
00000070: 79dc 9c3c 90c5 c93c 5ee3 223c c1e7 1fbb
00000080: 41ff b13c 1d60 bdb9 06c9 fa3c 8148 603c
00000090: 05c3 833d b0d2 763d 0328 67ba 3430 7b3d
000000a0: 224e 923c e434 5d3c 1003 813d f3c5 da3c
000000b0: 61e5 003c f882 623b 832c 803d 33a5 20bb
000000c0: 7b5e 043c ea45 80b9 8476 2d3d 5afa 973c
000000d0: 3dce d0bc b12b 873c 1817 7f3c 7826 083d
000000e0: dcfe 173c 6ed3 073d fa40 493c de89 373d
000000f0: d8fc 0e3d c9a5 b33b cd78 823d dee6 edb9

squeezenet/conv10/BiasAdd/ReadVariableOp f4 [10]
-0.033801626 0.026456675 0.019512821 0.014259753 0.03492393 0.056042507 0.041969847 0.00018064701
0.048307497 0.032794964
00000000: 9373 0abd abbb d83c 5ad9 9f3c bda1 693c
00000010: 650c 0f3d d48c 653d 93e8 2b3d 106c 3d39
00000020: 15de 453d 0354 063d

squeezenet/conv1/Conv2D f4 [64, 3, 3, 1]
-0.03400131 -0.116230115 0.059623174 0.0564197 0.090018995 -0.04302921 0.092760816 0.015850846
-0.01944899 0.09220195 -0.010024566 -0.11441273 0.14506295 0.024876459 -0.10747804 -0.12408287
0.14206769 -0.06883158 0.1527264 -0.005140674 0.037277747 0.013804656 0.100090556 0.1467707
0.11916079 0.09742257 0.10982203 -0.015816603 -0.05557171 -0.084742 -0.103504 -0.00799316
-0.15774961 0.06309072 -0.053269606 -0.09085682 -0.045443222 0.06458502 0.0055880737 -0.0069288993
0.1701169 0.1190201 0.07099055 0.16257551 0.1828065 0.13955785 0.13110186 0.15938817
-0.009774053 -0.019298587 0.15072596 -0.069989935 -0.06735711 -0.10212667 0.08407106 -0.06704525
0.08668324 -0.04926594 0.07181445 0.05381309 0.03470851 -0.06917018 -0.108183086 0.054532036
0.023389546 -0.1283232 0.015547109 0.020688353 0.07940751 -0.07733292 -0.0052482607 -0.020779485
0.13056049 0.079838574 0.061784755 -0.044102695 -0.07456808 0.0144238155 -0.024550464 0.023015954
-0.07135183 0.040318515 -0.12917104 -0.052142963 0.11941203 0.061100148 0.0041535236 0.07132361
0.21898973 0.120561205 -0.0064089927 -0.04791723 -0.03213216 -0.005559971 0.027506027 0.1500673
0.10072184 0.19542754 0.20645437 0.11966776 -0.04764826 -0.12543453 0.11714477 0.00451379
-0.022343162 -0.031219305 -0.036766253 -0.18275861 -0.18770519 -0.09639351 -0.1300872 -0.04301273
-0.052971635 -0.12991992 0.026649648 0.11122167 0.018342689 -0.018538155 -0.07102043 0.11495991
-0.13859335 0.041813776 0.11497644 -0.11770829 -0.041049067 -0.0611383 0.08083574 0.17294525
0.11646995 0.22311364 0.060658716 0.16813059 0.10265348 -0.040628526 -0.0888896 -0.014271544
-0.14477508 -0.09359965 -0.011879653 -0.014633959 -0.049613807 0.18808557 0.114096366 0.112177506
-0.015982384 -0.030924454 0.07218407 0.10550547 -0.0027508014 -0.042480085 -0.012046615 -0.054680604
-0.013829554 0.17030376 0.0006846841 0.042141523 0.015000418 -0.04471935 0.09116343 0.024315923
-0.1343375 -0.18341549 0.028012853 0.17825788 0.12504959 0.12883137 0.017544711 -0.011629897
-0.12289319 -0.03212838 -0.04779178 -0.024821496 0.19627401 0.009673606 0.16488905 0.15534382
0.13610648 0.14386754 0.07542321 -0.039105937 -0.029524855 0.008467708 -0.035692256 -0.027566064
0.062420446 -0.093331836 0.07109059 0.08825721 -0.07037747 0.08288853 0.058021907 0.06540414
0.14780204 0.07815986 0.21579671 0.05614914 0.044894792 0.039643634 -0.09933292 0.034845497
-0.057016466 0.10122373 -0.016472096 -0.053521603 0.042382047 0.23543665 0.12695846 0.07933541
0.11207256 -0.014691976 -0.004604135 -0.027877215 -0.086246066 -0.17948306 -0.08485963 -0.1386857
0.1156518 0.14230265 0.13782051 0.07589928 0.16725127 0.042312685 0.10154991 0.104963355
0.07469819 0.14075913 0.043144017 0.1101721 -0.07137222 -0.07822731 -0.042707272 0.044334605
-0.10794896 0.013105424 0.13000268 0.12316174 -0.046012763 -0.096275836 -0.05481913 0.077898726
-0.016213425 0.18947211 0.06761654 -0.06380659 0.09175338 -0.023898512 -0.043618962 0.089201294
0.16357931 -0.060736194 0.045482524 -0.021921884 -0.06386691 -0.036873918 -0.047496397 -0.07763018
00000000: f544 0bbd 0e0a eebd 6e37 743d 5818 673d
00000010: e15b b83d 663f 30bd 62f9 bd3d a2d9 813c
00000020: 7d53 9fbc 60d4 bc3d 143e 24bc 3951 eabd
00000030: 628b 143e b7c9 cb3c 721d dcbd 291f febd
00000040: 317a 113e 92f7 8cbd 4f64 1c3e 1973 a8bb
00000050: 8db0 183d ed2c 623c 47fc cc3d 0f4b 163e
00000060: 930a f43d 7c85 c73d 5fea e03d d291 81bc
00000070: 299f 63bd 378d adbd e8f9 d3bd bef5 02bc
00000080: 1d89 21be b535 813d 3b31 5abd 2413 babd
00000090: ac22 3abd 2745 843d 291c b73b d20b e3bb
000000a0: 2033 2e3e cfc0 f33d 7e63 913d 327a 263e
000000b0: a131 3b3e 41e8 0e3e 913f 063e a736 233e
000000c0: 5923 20bc 1218 9ebc e857 1a3e e256 8fbd
000000d0: 86f2 89bd ca27 d1bd 732d ac3d 054f 89bd
000000e0: fc86 b13d 15cb 49bd 7413 933d 1d6b 5c3d
000000f0: 832a 0e3d 18a9 8dbd 188f ddbd fc5c 5f3d
00000100: 6f9b bf3c 2867 03be 4db9 7e3c 9f7a a93c
00000110: 68a0 a23d b960 9ebd 9af9 abbb bd39 aabc
00000120: a6b1 053e 6882 a33d 0312 7d3d 07a5 34bd
00000130: 26b7 98bd de51 6c3c 0e1e c9bc f48b bc3c
00000140: e920 92bd 0725 253d 6a45 04be dc93 55bd
00000150: 4b8e f43d 2644 7a3d 481a 883b 1d12 923d
00000160: d83e 603e cbe8 f63d 8702 d2bb db44 44bd
00000170: 039d 03bd 6b30 b6bb 5254 e13c 3eab 193e
00000180: 4147 ce3d 281e 483e c668 533e 5f14 f53d
00000190: d22a 43bd e971 00be 99e9 ef3d 6ae8 933b
000001a0: 0209 b7bc a1bf ffbc 3698 16bd 1325 3bbe
000001b0: ca35 40be f669 c5bd 9435 05be 1e2e 30bd
000001c0: c9f8 58bd ba09 05be 5d50 da3c 30c8 e33d
000001d0: 6843 963c 54dd 97bc 2973 91bd 1a70 eb3d
000001e0: 6aeb 0dbe ec44 2b3d c578 eb3d 0b11 f1bd
000001f0: 1123 28bd 276c 7abd 358d a53d 8f18 313e
00000200: cc87 ee3d e777 643e 4675 783d 6d2a 2c3e
00000210: fd3b d23d 196a 26bd c00b b6bd 32d3 69bc
00000220: eb3f 14be 2cb1 bfbd e0a2 42bc 46c3 6fbc
00000230: d937 4bbd 8199 403e 5bab e93d 52bd e53d
00000240: 7ded 82bc 4855 fdbc 3ed5 933d 4013 d83d
00000250: ca46 34bb 99ff 2dbd 2a5f 45bc c5f8 5fbd
00000260: 5b95 62bc 1c64 2e3e 5f7c 333a 979c 2c3d
00000270: 50c4 753c a32b 37bd e4b3 ba3d 3032 c73c
00000280: c58f 09be 45d1 3bbe 367b e53c 3c89 363e
00000290: 000d 003e 5fec 033e edb9 8f3c 538b 3ebc
000002a0: 6daf fbbd 0c99 03bd 50c1 43bd 7356 cbbc
000002b0: 0efc 483e 0b7e 1e3c add8 283e 7312 1f3e
000002c0: 7f5f 0b3e 0352 133e 7c77 9a3d 8c2d 20bd
000002d0: 1cde f1bc 24bc 0a3c 0b32 12bd 3ad2 e1bc
000002e0: 95ac 7f3d c324 bfbd f197 913d 32c0 b43d
000002f0: 1022 90bd 76c1 a93d 61a8 6d3d 9bf2 853d
00000300: 6b59 173e 4712 a03d d0f9 5c3e a4fc 653d
00000310: 9ae3 373d 5d61 223d 0f6f cbbd 27ba 0e3d
00000320: 198a 69bd 634e cf3d 7df0 86bc 7839 5bbd
00000330: cc98 2d3d 4e16 713e 6601 023e 9a7a a23d
00000340: 4c86 e53d 9db6 70bc 49de 96bb c25e e4bc
00000350: c7a1 b0bd 68ca 37be e3ca adbd a003 0ebe
00000360: dada ec3d c9b7 113e d220 0d3e 1571 9b3d
00000370: eb43 2b3e 1150 2d3d 66f9 cf3d 07f7 d63d
00000380: 5dfb 983d 2923 103e c8b7 303d e9a1 e13d
00000390: 992b 92bd a435 a0bd d2ed 2ebd 3498 353d
000003a0: 5814 ddbd 22b8 563c 6c1f 053e 393c fc3d
000003b0: e177 3cbd 442c c5bd 068a 60bd 5e89 9f3d
000003c0: 04d2 84bc fa04 423e 8a7a 8a3d 08ad 82bd
000003d0: 32e9 bb3d d0c6 c3bc cca9 32bd 2baf b63d
000003e0: 5681 273e 84c6 78bd e24b 3a3d 8695 b3bc
000003f0: a8cc 82bd 1b09 17bd 958b 42bd 92fc 9ebd

squeezenet/fire2/squeeze1x1/Conv2D f4 [16, 1, 1, 64]
0.23570791 0.11805703 0.18680623 -0.16364066 0.028546872 -0.13237995 -0.23618723 -0.1880001
0.2400599 -0.019884532 0.31181043 0.20282562 -0.16135414 -0.0687464 0.026472619 0.19278337
-0.03288901 -0.15860109 -0.10094015 -0.032823343 -0.017404791 -0.026843429 0.37888968 -0.2039484
0.16314347 -0.21106829 0.30037826 0.12130553 -0.14504969 -0.09638923 -0.05213337 -0.07805306
0.1514057 0.31139135 0.27989912 0.30386025 -0.123537086 -0.12706524 0.2358827 0.06457931
0.0057902425 0.007302954 0.19504653 0.12170365 0.32617518 -0.008839731 -0.19703369 -0.00021634006
-0.113981 0.5266671 0.16989464 -0.13617101 -0.12939839 0.31939363 0.1301743 0.08443804
-0.097051404 0.12618586 0.2549852 0.29194477 0.2259098 0.07930813 0.31513482 -0.0037308894
-0.15683845 -0.13458046 -0.050549895 -0.16506237 -0.063325256 0.29815724 0.115707934 0.28732917
0.1433444 -0.094662145 -0.2532123 0.20450076 -0.10356247 -0.028554002 0.2168225 -0.26732838
0.008407492 0.17768995 0.26723966 0.2936697 0.30665946 0.21548702 -0.29016316 0.012505814
0.09669253 0.09277031 -0.11084197 0.25419822 0.045204304 0.12401111 0.23907256 -0.1629606
0.20713854 0.049496103 0.23445821 -0.06369755 0.15946539 0.31623214 -0.22775288 -0.28401312
0.2761548 0.038442813 0.18043354 0.03480393 -0.20023176 -0.10685124 -0.20384441 -0.053754847
0.054289326 -0.065518044 0.15862793 -0.13715261 -0.22968768 -0.120009415 0.018365664 0.32206628
-0.2174183 0.2836838 -0.05912837 0.15369026 -0.12065982 -0.0642985 -0.09791494 0.06423846
-0.24355283 0.02020197 -0.13390404 0.17741185 0.16015239 0.075169735 -0.03253116 -0.07732522
0.29840928 0.011181012 -0.2459675 -0.12805298 0.024878649 0.07474361 0.31456468 0.20698419
0.010594029 0.029747758 0.1378201 -0.16015688 -0.036093716 0.03608113 -0.11904391 0.3159075
-0.070276864 0.19294597 0.131632 0.21695958 0.20540665 -0.21321186 -0.20399953 -5.3818752e-05
0.24294272 0.0700457 0.22991532 -0.22654884 -0.114262976 0.20006031 -0.25927052 -0.27527574
0.29802546 -0.20590937 -0.19195117 0.25749087 0.048468206 -0.1745178 0.12915179 0.018421043
-0.008412531 -0.24834551 0.23238388 -0.14150007 -0.22741415 -0.051553648 -0.018845055 0.1143148
-0.19194928 0.22508346 -0.19141603 0.1472945 0.050956815 0.26671255 -0.23149148 0.092651345
0.17689872 0.07516555 -0.042285588 0.044211842 -0.22317299 0.009985627 -0.23503728 0.07680803
-0.19296423 0.2473502 -0.07579011 0.09111134 -0.02254145 -0.33548585 -0.04544737 0.21024801
0.0721239 -0.24766427 0.19261447 0.13882482 -0.06942421 0.2336526 -0.17323953 -0.05043151
0.23620333 0.18525979 -0.15500487 -0.28361577 -0.0034280173 0.21333408 0.25328776 0.007730121
-0.042629883 -0.17559858 -0.040105753 -0.19065438 -0.22529694 0.069766715 -0.025484862 -0.2237878
0.08333201 -0.2600099 -0.15246439 -0.31327364 0.28348204 -0.1893517 0.10987495 -0.12964956
-0.0554255 0.13807125 0.16765068 -0.19247757 -0.009165881 0.19531453 -0.088981226 0.26323912
-0.20813262 0.026407674 0.26112726 -0.21685895 -0.04360736 0.004415966 0.29319233 0.03533921
00000000: 6a5d 713e e2c7 f13d 224a 3f3e 6b91 27be
00000010: 21db e93c 9c8e 07be 11db 71be 1983 40be
00000020: 43d2 753e e3e4 a2bc 9ea5 9f3e 85b1 4f3e
00000030: 053a 25be eaca 8cbd 1bdd d83c 0169 453e
00000040: a0b6 06bd 5368 22be b6b9 cebd c571 06bd
00000050: 7e94 8ebc c0e6 dbbc d4fd c13e d9d7 50be
00000060: 150f 273e 4922 58be 2ecb 993e 096f f83d
00000070: e887 14be b767 c5bd cd89 55bd 48da 9fbd
00000080: 190a 1b3e b06e 9f3e f04e 8f3e 9293 9b3e
00000090: 0301 fdbd 641d 02be 3c8b 713e 2842 843d
000000a0: 13bc bd3b 9e4d ef3b 47ba 473e c33f f93d
000000b0: 6f00 a73e 85d4 10bc 33c3 49be 58d9 62b9
000000c0: df6e e9bd a8d3 063f dcf8 2d3e 6a70 0bbe
000000d0: 0381 04be 9087 a33e 694c 053e daed ac3d
000000e0: e3c2 c6bd de36 013e 6c8d 823e c979 953e
000000f0: e654 673e 4d6c a23d 5a59 a13e f081 74bb
00000100: 429a 20be 76cf 09be 680d 4fbd 1c06 29be
00000110: acb0 81bd 11a8 983e 48f8 ec3d cf1c 933e
00000120: e0c8 123e 3ade c1bd 0ba5 81be a668 513e
00000130: 8f18 d4bd 15ea e9bc b806 5e3e 44df 88be
00000140: 94bf 093c 5bf4 353e a3d3 883e e05b 963e
00000150: 7802 9d3e a1a8 5c3e 4490 94be 30e5 4c3c
00000160: bc06 c63d 5cfe bd3d 1d01 e3bd 4526 823e
00000170: 2628 393d 89f9 fd3d 70cf 743e 25df 26be
00000180: 201c 543e 6dbc 4a3d d015 703e dc73 82bd
00000190: e54a 233e 2ee9 a13e 0d38 69be 2b6a 91be
000001a0: 2964 8d3e 3676 1d3d 92c3 383e 918e 0e3d
000001b0: 8e09 4dbe d3d4 dabd 97bc 50be 0b2e 5cbd
000001c0: 7c5e 5e3d 532e 86bd 5c6f 223e bc71 0cbe
000001d0: 3f33 6bbe 7fc7 f5bd 9773 963c dfe5 a43e
000001e0: e7a2 5ebe 013f 913e 9730 72bd fb60 1d3e
000001f0: 7f1c f7bd efae 83bd a187 c8bd 748f 833d
00000200: ea65 79be 9a7e a53c 241e 09be 74ab 353e
00000210: fdfe 233e 97f2 993d 653f 05bd af5c 9ebd
00000220: 1ac9 983e 9030 373c e8de 7bbe 5220 03be
00000230: 4fce cb3c 2e13 993d 9f0e a13e aaf3 533e
00000240: 9492 2d3c 92b1 f33c b620 0d3e 2a00 24be
00000250: 01d7 13bd cfc9 133d 4bcd f3bd a1be a13e
00000260: 51ed 8fbd a193 453e 8aca 063e a72a 5e3e
00000270: 1f56 523e 3654 5abe 41e5 50be 72bb 61b8
00000280: fac5 783e 1f74 8f3d ec6e 6b3e 6bfc 67be
00000290: b502 eabd 9cdc 4c3e 1bbf 84be f1f0 8cbe
000002a0: cb96 983e e8d9 52be d98e 44be d8d5 833e
000002b0: 9986 463d cbb4 32be 5e40 043e bae7 963c
000002c0: b6d4 09bc 494e 7ebe 0af6 6d3e 65e5 10be
000002d0: 41df 68be eb29 53bd f260 9abc e11d ea3d
000002e0: 5a8e 44be 477c 663e 9002 44be 5fd4 163e
000002f0: 18b8 503d 8c8e 883e 1a0c 6dbe fdbf bd3d
00000300: f024 353e 65f0 993d a733 2dbd 7a17 353d
00000310: 7687 64be c19a 233c 9dad 70be 874d 9d3d
00000320: 6a98 45be 5f49 7d3e d837 9bbd 9598 ba3d
00000330: d9a8 b8bc cdc4 abbe 0527 3abd 414b 573e
00000340: b2b5 933d b49b 7dbe ba3c 453e 1828 0e3e
00000350: 482e 8ebd a142 6f3e b465 31be 4591 4ebd
00000360: 49df 713e beb4 3d3e 99b9 1ebe 1636 91be
00000370: 96a8 60bb 4074 5a3e efae 813e f44c fd3b
00000380: ac9c 2ebd 1dd0 33be ee45 24bd e73a 43be
00000390: 3eb4 66be dae1 8e3d a1c5 d0bc a128 65be
000003a0: f9a9 aa3d 0520 85be a01f 1cbe 6765 a0be
000003b0: 8f24 913e 69e5 41be 1e06 e13d dbc2 04be
000003c0: d905 63bd 8d62 0d3e 9fac 2b3e d718 45be
000003d0: 7e2c 16bc 8800 483e ca3b b6bd 47c7 863e
000003e0: b820 55be e854 d83c 79b2 853e 4610 5ebe
000003f0: a29d 32bd cfb3 903b 4e1d 963e d9bf 103d

squeezenet/fire2/expand1x1/Conv2D f4 [64, 1, 1, 16]
0.0049949507 0.006764742 -0.087492935 -0.2947433 0.2217241 0.22179501 -0.21781321 -0.2728047
0.06622829 0.100351125 0.05621955 0.1866205 0.21081491 0.010964886 0.21808694 -0.12955245
0.123281635 -0.14508855 0.09565396 0.26853585 0.20719993 0.27727377 -0.045311663 -0.20722431
0.21829672 -0.16101293 -0.026013553 0.14123729 -0.25893465 0.17489487 -0.031322416 0.31105602
-0.0417997 0.06871694 0.08959977 -0.22030245 -0.18139884 -0.08503775 -0.11025269 0.23440124
0.10916831 0.008982883 -0.15177512 -0.1592627 -0.19441582 -0.14317702 -0.040206008 -0.08805515
0.24544099 0.35956553 -0.22882237 -0.08950904 -0.31184104 0.058242064 0.1277696 -0.008745163
-0.18078673 -0.221282 0.07461301 -0.04203977 0.3136977 -0.10676074 0.3062006 0.15989685
0.1001977 -0.16756256 0.1562905 -0.1520789 0.06573204 0.028566726 0.014645037 -0.09642452
-0.03631773 0.032238625 -0.07190299 -0.026001919 0.2397092 0.21570852 0.024553033 0.25780407
-0.12684044 0.0028933084 0.26027116 0.11515022 -0.19835883 0.02919978 0.104357034 0.121036634
0.16338597 -0.008312653 -0.055645507 0.18163314 0.09004962 -0.07620655 -0.39093912 -0.18764696
0.20580772 -0.29793894 0.014522834 0.019691601 0.23338994 -0.04509273 -0.21812946 -0.12494669
0.24097526 0.09737981 0.26007658 0.18666054 0.044329543 -0.068152174 -0.31917924 -0.044380892
-0.004750163 -0.2005685 0.16508178 -0.27292392 0.058255456 0.087209076 0.08744117 0.27282542
0.17290816 0.096536174 -0.17744762 0.18781918 -0.24374202 0.07095772 -0.21759892 -0.19071682
0.08320206 -0.1806404 -0.06151903 0.104172595 0.28343272 0.06438987 -0.0008172345 0.15841341
0.26004648 -0.010159805 -0.21038495 0.06282734 0.17289653 -0.23559599 -0.15101755 0.021793367
-0.19799103 0.17433405 -0.2829161 0.23458782 0.2197385 0.20264481 0.15642403 0.14532295
-0.19943856 0.21432915 -0.024371825 0.15889604 -0.07334375 0.008700056 -0.056427177 0.2860798
0.12723477 -0.06249335 -0.22762014 0.16335647 0.07429794 0.003869327 0.022529414 -0.06934232
-0.026380535 0.28176367 0.24779421 0.046311878 -0.08638901 -0.22200537 -0.10171554 -0.052884568
0.032229748 0.12738322 -0.21701191 -0.11292003 0.21440911 0.058194246 -0.07730457 -0.13258795
0.10613674 0.095872596 0.19423686 -0.090985894 0.112982206 0.029701203 0.20918083 -0.02194667
0.032573078 -0.17928265 0.33487558 -0.2065575 0.009537513 0.0071189166 -0.014549276 0.0017092259
0.022721691 -0.049330276 -0.1789259 0.05821308 0.1626103 0.013749256 0.24001564 0.043321684
0.10379867 -0.18906972 0.06243983 -0.1113459 -0.060324024 0.048198808 0.26761824 0.11656332
-0.02603886 0.08938128 -0.06880771 0.26529965 0.27311534 0.028737582 -0.14302872 0.15546536
0.1296513 -0.047262244 -0.18921517 0.18700986 0.13226584 0.22284958 -0.22514673 0.04526499
-0.043644037 0.24673587 -0.18781713 -0.21587577 0.07622518 0.2172023 -0.21104771 -0.26625833
-0.105538584 0.08644061 -0.22961992 -0.07726977 0.22268157 0.28926113 0.07117954 0.05260019
-0.023609634 -0.05589838 0.21180087 0.074925065 -0.28232285 0.20388368 -0.2457631 -0.03466988
00000000: afac a33b c5aa dd3b 7f2f b3bd 98e8 96be
00000010: a40b 633e 3b1e 633e 6d0a 5fbe 0fad 8bbe
00000020: b3a2 873d e484 cd3d 7946 663d 7219 3f3e
00000030: dddf 573e 11a6 333c 2f52 5f3e 66a9 04be
00000040: 157b fc3d 1892 14be 39e6 c33d 887d 893e
00000050: 382c 543e d4f6 8d3e b998 39bd 9c32 54be
00000060: 2d89 5f3e 93e0 24be 601a d5bc 82a0 103e
00000070: 1593 84be a417 333e ef4b 00bd bc42 9f3e
00000080: 2a36 2bbd 78bb 8c3d 1680 b73d f796 61be
00000090: 9ec0 39be 4628 aebd 2acc e1bd e106 703e
000000a0: a393 df3d f12c 133c f06a 1bbe c315 23be
000000b0: f114 47be ff9c 12be 0eaf 24bd 4256 b4bd
000000c0: e254 7b3e f918 b83e 6950 6abe 8450 b7bd
000000d0: a1a9 9fbe 3b8f 6e3d 09d6 023e df47 0fbc
000000e0: 2820 39be c097 62be b5ce 983d e531 2cbd
000000f0: fc9c a03e 60a5 dabd 53c6 9c3e 00bc 233e
00000100: 7434 cd3d 8595 2bbe 9e0a 203e 92ba 1bbe
00000110: 859e 863d c404 ea3c bdf1 6f3c 387a c5bd
00000120: e6c1 14bd a60c 043d e041 93bd fa01 d5bc
00000130: 5476 753e b2e2 5c3e 7123 c93c e5fe 833e
00000140: 76e2 01be a99d 3d3b 4342 853e e1d3 eb3d
00000150: 941e 4bbe 6134 ef3c 24b9 d53d 0ee2 f73d
00000160: a74e 273e cb31 08bc 8bec 63bd 0afe 393e
00000170: ef6b b83d 2e12 9cbd 2c29 c8be 8626 40be
00000180: 42bf 523e 748b 98be 2ef1 6d3c 4850 a13c
00000190: c6fd 6e3e 28b3 38bd 545d 5fbe 0de4 ffbd
000001a0: 38c2 763e 116f c73d c228 853e f123 3f3e
000001b0: e592 353d 5e93 8bbd 766b a3be bdc8 35bd
000001c0: 41a7 9bbb d461 4dbe 330b 293e afbc 8bbe
000001d0: 469d 6e3d ac9a b23d 5b14 b33d c6af 8b3e
000001e0: d60e 313e c2b4 c53d d4b4 35be ac53 403e
000001f0: 8297 79be 4852 913d 40d2 5ebe 454b 43be
00000200: d765 aa3d ccf9 38be 61fb 7bbd 7158 d53d
00000210: 181e 913e d6de 833d ae3b 56ba 2037 223e
00000220: d024 853e 5075 26bc 276f 57be 9fab 803d
00000230: ca0b 313e 1340 71be 58a4 1abe 0188 b23c
00000240: 29be 4abe a084 323e 61da 90be ca37 703e
00000250: 2103 613e 1f82 4f3e 9f2d 203e 8acf 143e
00000260: 9f39 4cbe 1a79 5b3e 6ca7 c7bc a5b5 223e
00000270: 3f35 96bd ae8a 0e3c 2f20 67bd 0d79 923e
00000280: d549 023e 07f9 7fbd 4115 69be eb46 273e
00000290: 8529 983d 8994 7d3b 9b8f b83c 5903 8ebd
000002a0: fe1b d8bc 5443 903e c4bd 7d3e 86b1 3d3d
000002b0: b9ec b0bd 6055 63be 3d50 d0bd 7d9d 58bd
000002c0: 5703 043d bf70 023e 5f38 5ebe 9e42 e7bd
000002d0: 108e 5b3e 175d 6e3d dc51 9ebd 23c5 07be
000002e0: 385e d93d da58 c43d 07e6 463e d056 babd
000002f0: 3763 e73d f04f f33c 8033 563e 81c9 b3bc
00000300: 596b 053d df95 37be d074 ab3e cf83 53be
00000310: 3b43 1c3c cd45 e93b 1660 6ebc 1b08 e03a
00000320: d722 ba3c 8b0e 4abd 5a38 37be d770 6e3d
00000330: 5183 263e 8f44 613c a9c6 753e 1472 313d
00000340: 6694 d43d 7e9b 41be e8c0 7f3d 5209 e4bd
00000350: 5316 77bd 1d6c 453d 4205 893e c0b8 ee3d
00000360: 734f d5bc 880d b73d 0feb 8cbd 5bd5 873e
00000370: c6d5 8b3e 146b eb3c 1f76 12be 5032 1f3e
00000380: 4fc3 043e 0e96 41bd 9fc1 41be 837f 3f3e
00000390: b270 073e ae32 643e dd8c 66be c867 393d
000003a0: 17c4 32bd 54a8 7c3e 2253 40be 8a0e 5dbe
000003b0: f21b 9c3d 486a 5e3e e41c 58be 0353 88be
000003c0: 9d24 d8bd c607 b13d 7c21 6bbe 9d3f 9ebd
000003d0: a306 643e 091a 943e 94c6 913d 4c73 573d
000003e0: fe68 c1bc b3f5 64bd 54e2 583e 5072 993d
000003f0: 9f8c 90be e2c6 503e 52a9 7bbe 0102 0ebd

squeezenet/fire2/expand3x3/Conv2D f4 [64, 3, 3, 16]
-0.06869563 0.053004213 0.0976159 -0.087701514 0.07620564 -0.014485778 0.07814594 -0.04372496
0.088593066 0.016891044 -0.04820271 0.00065873144 -0.06190772 -0.016744293 -0.019107847 -0.059069067
0.11869041 0.040883604 0.034780044 -0.05015567 0.10808272 0.05107817 0.073238894 0.15029046
0.029925056 0.08988162 0.0927546 0.1251788 -0.011737817 0.15841699 -0.017052656 0.09420668
-0.11654478 0.08464794 0.049425855 -0.04437832 0.07821959 -0.01106217 -0.036939353 -0.012184266
-0.015710488 -0.030660996 -0.06708331 0.070782825 -0.003009575 0.10474079 0.0819443 -0.06484912
-0.048573706 0.06112373 -0.058871876 0.061631978 0.0001457594 -0.1060293 -0.058853503 0.08273905
0.07441699 0.015549423 -0.025646094 0.05799615 -0.012991964 0.07490463 0.064752124 0.040807188
0.08523364 0.12509552 -0.05278331 -0.0036349462 0.06958958 0.010783026 0.020193798 -0.0031935524
0.06290079 0.061089035 -0.031414118 -0.031565372 -0.017260885 0.015446778 0.059967354 -0.043355063
0.0018345166 0.042308073 0.13085803 0.065867804 0.17937328 -0.12132911 -0.017775575 -0.03697029
-0.033501863 -0.18451288 -0.060515195 -0.19483985 -0.12657651 0.006832581 0.12292879 -0.15930681
-0.048106465 -0.038765874 -0.11002833 0.055292863 -0.022445401 0.040092614 0.08076464 0.006640381
-0.00974572 0.10089309 -0.048096642 0.063667595 0.06323821 0.11836464 -0.014624249 0.10991768
0.13241547 -0.105810486 0.089783855 0.060112894 -3.7156715e-06 0.11592106 0.12649126 0.15407084
0.0016558636 0.08383703 0.09367054 0.10242904 0.018754605 0.23338194 0.052338205 0.06106857
0.003968548 -0.1280885 0.0006587858 0.047048558 0.13064797 -0.051551268 -0.05379728 -0.064982526
-0.09320885 -0.004565754 -0.051121123 0.108493224 -0.16853955 0.094869874 -0.052966893 -0.12131485
0.03919371 0.13701642 0.15651102 0.036344793 -0.034604322 -0.013258804 -0.053743675 -0.028647307
-0.017089864 0.011478803 -0.078697234 -0.07753665 0.1121585 0.05063934 0.11610398 -0.06193616
0.0652755 0.09139348 0.108745426 0.06686688 -0.022220396 0.037645295 -0.03903966 -0.012750021
0.051025834 -0.022539385 0.0021435234 -0.011491181 -0.029766468 0.11905966 -0.070089534 -0.023754047
-0.027352914 -0.09320388 -0.09737578 0.0016388792 -0.045558207 0.0832628 0.0915814 0.08412232
-0.03777944 0.06417548 0.04002721 -0.044642244 0.07032109 0.140923 -0.11952484 -0.036699973
-0.04579653 0.045966417 0.01586472 -0.05103502 -0.019668983 -0.066983216 -0.1205622 -0.005015473
0.01983206 -0.09520895 -0.050753497 0.061777987 0.030859131 -0.07171483 0.067003384 -0.028094517
-0.087411635 0.021499312 -0.024394399 -0.091273345 0.04314189 -0.014090145 -0.039857414 0.03820789
-0.05366141 0.048497595 0.03205531 -0.01589789 0.04638513 -0.044892922 -0.008342066 0.078366
0.092281 0.0692775 -0.054146 -0.056807242 0.004601262 -0.08064707 -0.035727326 0.07685423
0.09535444 0.035010085 -0.031118283 -0.0035103464 -0.08342587 0.048865907 0.03967635 0.07287195
-0.023408303 -0.10807451 -0.022878338 0.00075670634 -0.0029834858 0.08155505 -0.011660493 0.013969026
-0.014265146 -0.040801372 -0.079501495 0.067321874 -0.0037158644 -0.020026179 0.049202695 -0.032164752
00000000: 4bb0 8cbd f21a 593d d8ea c73d da9c b3bd
00000010: b411 9c3d c255 6dbc fb0a a03d f218 33bd
00000020: 4870 b53d 165f 8a3c 3470 45bd b8ae 2c3a
00000030: f392 7dbd 542b 89bc 0f88 9cbc 68f2 71bd
00000040: f513 f33d 9175 273d 8575 0e3d 0870 4dbd
00000050: 795a dd3d 5837 513d 46fe 953d bee5 193e
00000060: 6425 f53c db13 b83d 20f6 bd3d df2e 003e
00000070: f94f 40bc 1038 223e 03b2 8bbc 6fef c03d
00000080: 08af eebd e65b ad3d c472 4a3d 0bc6 35bd
00000090: 9831 a03d 1b3e 35bc b84d 17bd 84a0 47bc
000000a0: 48b3 80bc c52c fbbc f962 89bd 96f6 903d
000000b0: 4a3c 45bb 5782 d63d 6ad2 a73d 9ecf 84bd
000000c0: 39f5 46bd e05c 7a3d a323 71bd d071 7c3d
000000d0: fed6 1839 e425 d9bd 5f10 71bd 1773 a93d
000000e0: ef67 983d 02c3 7e3c c217 d2bc 5f8d 6d3d
000000f0: 3fdc 54bc 9967 993d c39c 843d 7025 273d
00000100: fa8e ae3d 0a19 003e 5033 58bd 4738 6ebb
00000110: fb84 8e3d 4aab 303c 776d a53c eb4a 51bb
00000120: 21d2 803d 7f38 7a3d 17ac 00bd b14a 01bd
00000130: b366 8dbc 7c14 7d3c 54a0 753d 1495 31bd
00000140: 2a74 f03a 3b4b 2d3d a6ff 053e b3e5 863d
00000150: a1ad 373e 657b f8bd 159e 91bc 296e 17bd
00000160: 4039 09bd f2f0 3cbe c8de 77bd 1984 47be
00000170: 469d 01be d8e3 df3b 17c2 fb3d 5321 23be
00000180: 490b 45bd f7c8 1ebd 8856 e1bd c57a 623d
00000190: 6bdf b7bc 2738 243d ee67 a53d 8e97 d93b
000001a0: 83ac 1fbc 09a1 ce3d fc00 45bd 2864 823d
000001b0: 0983 813d 2969 f23d 8c9a 6fbc 851c e13d
000001c0: ec97 073e 2bb3 d8bd 99e0 b73d f038 763d
000001d0: c05a 79b6 0568 ed3d ed86 013e bfc4 1d3e
000001e0: 9009 d93a c0b2 ab3d 57d6 bf3d 51c6 d13d
000001f0: 42a3 993c adfb 6e3e 9660 563d 0923 7a3d
00000200: 980a 823b a229 03be 5eb2 2c3a fdb5 403d
00000210: 95c8 053e 6c27 53bd 895a 5cbd 8f15 85bd
00000220: 48e4 bebd 529c 95bb 6264 51bd b231 de3d
00000230: a295 2cbe 234b c23d d0f3 58bd ec73 f8bd
00000240: 9589 203d 084e 0c3e 6d44 203e 47de 143d
00000250: 43bd 0dbd 743b 59bc 5422 5cbd c2ad eabc
00000260: 0b00 8cbc 9711 3c3c 042c a1bd 89cb 9ebd
00000270: 5bb3 e53d 326b 4f3d ecc7 ed3d c5b0 7dbd
00000280: 29af 853d 812c bb3d ecb5 de3d 81f1 883d
00000290: 8c07 b6bc f431 1a3d 0de8 1fbd 77e5 50bc
000002a0: 7700 513d 84a4 b8bc 5b7a 0c3b 8245 3cbc
000002b0: cfd8 f3bc 8dd5 f33d 1a8b 8fbd d997 c2bc
000002c0: 3813 e0bc ade1 bebd f46c c7bd a9cf d63a
000002d0: 3e9b 3abd b085 aa3d 078f bb3d 5348 ac3d
000002e0: 9dbe 1abd 6f6e 833d 92f3 233d c9da 36bd
000002f0: 8104 903d 1e4e 103e 70c9 f4bd b652 16bd
00000300: 2495 3bbd 4847 3c3d bbf6 813c 190a 51bd
00000310: d920 a1bc 7f2e 89bd 51e9 f6bd d658 a4bb
00000320: d876 a23c e9fc c2bd e6e2 4fbd ea0a 7d3d
00000330: 4acc fc3c 3adf 92bd 1239 893d 7926 e6bc
00000340: df04 b3bd 531f b03c c3d6 c7bc 85ed babd
00000350: 8db5 303d 5ada 66bc 8741 23bd e07f 1c3d
00000360: 11cc 5bbd 6aa5 463d 6e4c 033d 4b3c 82bc
00000370: 56fe 3d3d a4e1 37bd 29ad 08bc 5a7e a03d
00000380: d2fd bc3d 5de1 8d3d 32c8 5dbd b6ae 68bd
00000390: 2fc6 963b 4b2a a5bd d156 12bd c065 9d3d
000003a0: 3049 c33d bc66 0f3d c5eb febc d70d 66bb
000003b0: 2fdb aabd 9e27 483d ab83 223d e43d 953d
000003c0: c5c2 bfbc 2b56 ddbd 5a6b bbbc b45d 463a
000003d0: 9686 43bb 5606 a73d a70b 3fbc 57de 643c
000003e0: 5cb8 69bc 571f 27bd aed1 a2bd 0de0 893d
000003f0: dc85 73bb f10d a4bc c488 493d 30bf 03bd
